src/checkpoint.pth.tar (torch_old, 55133 bytes, 3 tensors)

linear.weight f4 [1, 4096]
0	0x3d04d3d6	0.032428585
1	0x3cf8cb4f	0.030370383
2	0x3c86c6b6	0.016452175
3	0x3cc99127	0.024605347
4	0x3c8c2b44	0.017110474
5	0x3cc617e2	0.02418131
6	0x3c99a6cb	0.01875629
7	0x3d125ad6	0.03573116
8	0x3c555d13	0.013022679
9	0x3c90588a	0.017620344
10	0x3c983799	0.018581199
11	0x3c9f93e7	0.019479705
12	0x3cf4d8f5	0.02988861
13	0x3c846bdd	0.016164714
14	0x3d0fc4c5	0.035099763
15	0x3c181e08	0.009284504
16	0x3d0dd0a2	0.034622796
17	0x3cf37d46	0.029722821
18	0x3c89960b	0.016795179
19	0x3d13f997	0.0361267
20	0x3d02d943	0.03194548
21	0x3d1c8793	0.03821523
22	0x3cd3089e	0.025760945
23	0x3ca9104b	0.020637652
24	0x3cf10b77	0.029424412
25	0x3cd79f76	0.026321154
26	0x3cf7aaed	0.030232871
27	0x3d2c3420	0.042041898
28	0x3d090eed	0.0334615
29	0x3c939012	0.018013034
30	0x3d0e3dae	0.03472679
31	0x3ccd4527	0.025057388
32	0x3c02017a	0.007934922
33	0xbc1c0886	-0.0095235165
34	0xbc7d6aa4	-0.01546732
35	0xbbc5d10c	-0.006036883
36	0xbc445b9c	-0.011984732
37	0x3c520ed6	0.01282092
38	0x3b9378d8	0.0045004897
39	0x3bd413cc	0.0064720865
40	0x3ba1ecfc	0.004941581
41	0xb98e8200	-0.00027181208
42	0x3c485904	0.012228254
43	0xbc35e438	-0.011101775
44	0x3a80f320	0.0009838082
45	0xbc2ebaf4	-0.01066469
46	0x3b9de050	0.004818
47	0xbbb052e0	-0.005380973
48	0x3b9ce298	0.0047877543
49	0xbb555778	-0.0032553356
50	0x3c545306	0.012959247
51	0xbc17bb50	-0.009260967
52	0xbc18ad8a	-0.009318719
53	0xbc18afe6	-0.009319281
54	0x3c6641e2	0.014053794
55	0x3baa9fe4	0.0052070487
56	0x3c765610	0.015035167
57	0xbc53454e	-0.0128949415
58	0xbc7deb98	-0.015498064
59	0xbc4848fe	-0.012224434
60	0xbc2c355a	-0.010510767
61	0x3bcf616c	0.0063287523
62	0x3bb755b8	0.0055949353
63	0x3c54b776	0.012983194
64	0x3ca19f01	0.01972914
65	0x3c904ab8	0.017613754
66	0x3d20b050	0.039230645
67	0x3c75cd2a	0.015002528
68	0x3d01f2ae	0.031725578
69	0x3ceebd31	0.029142948
70	0x3d0e1c74	0.034695104
71	0x3c7d2b9d	0.015452293
72	0x3c8cdd89	0.01719548
73	0x3ceb857a	0.02875017
74	0x3cc83797	0.02444057
75	0x3cd80f30	0.02637443
76	0x3d089178	0.033341855
77	0x3d097216	0.033556066
78	0x3c85ca24	0.01633174
79	0x3c973e92	0.018462453
80	0x3d245089	0.040115867
81	0x3cc64d0a	0.024206657
82	0x3c616269	0.013756373
83	0x3c8da0af	0.017288534
84	0x3c7ee2d1	0.015557007
85	0x3cc24c6c	0.023718081
86	0x3cb697cf	0.022289185
87	0x3c7be891	0.015375272
88	0x3ca36c10	0.01994899
89	0x3c96eaec	0.018422566
90	0x3c409923	0.011755261
91	0x3c7acdb4	0.0153078325
92	0x3c22a732	0.009927558
93	0x3c83a431	0.016069504
94	0x3d249cbc	0.040188536
95	0x3cd26eeb	0.025687655
96	0x3b9dc71c	0.0048149955
97	0xbc6ec466	-0.014573192
98	0xbc282254	-0.010262091
99	0xbbaa6c14	-0.005200872
100	0x3b201fc0	0.0024432987
101	0xbc614286	-0.013748771
102	0xbbdc9b64	-0.006732391
103	0xbc194258	-0.0093541965
104	0x38359e00	4.330091e-05
105	0xbbbe8450	-0.0058141127
106	0xba8deaf0	-0.0010827463
107	0xbc2d7924	-0.010587964
108	0xbc2fb798	-0.0107249245
109	0xbc1559d2	-0.009115653
110	0xbbaf419c	-0.0053483974
111	0xbc4a0e50	-0.012332514
112	0x3c56a5f6	0.013101092
113	0xbb4b3a28	-0.0031010006
114	0x3c5c42f6	0.013443699
115	0x3b9f87b0	0.00486847
116	0xbc58c7b0	-0.013231203
117	0x3c312938	0.01081305
118	0xbb8cdfc8	-0.0042991377
119	0xbbc44350	-0.0059894696
120	0xbc547f80	-0.0129698515
121	0xbc7e8150	-0.01553376
122	0x3b927d18	0.0044704787
123	0xbb5fafc0	-0.0034131855
124	0x3bc7555c	0.0060831737
125	0xbc521700	-0.012822866
126	0x3c3e0fd6	0.011600455
127	0xbc3beaf2	-0.01146959
128	0x3cbd8bd6	0.023137968
129	0x3cee5c85	0.029096851
130	0x3d02d8c7	0.031945016
131	0x3d257501	0.040394787
132	0x3d1e0e9e	0.03858816
133	0x3c3e5581	0.011617065
134	0x3cea2385	0.02858139
135	0x3cdecbdf	0.027196823
136	0x3c8ec664	0.017428584
137	0x3c59fb2d	0.013304514
138	0x3d1ea89e	0.038735025
139	0x3c714271	0.0147253135
140	0x3d14fbe4	0.036373034
141	0x3ce63400	0.028100967
142	0x3cd42743	0.025897628
143	0x3c90c0c8	0.01767005
144	0x3d1a0e11	0.03761107
145	0x3cf70c94	0.030157365
146	0x3ceaebfa	0.028676976
147	0x3c5d249b	0.013497497
148	0x3cfd919e	0.030953225
149	0x3c9b247e	0.0189383
150	0x3cae3390	0.021264821
151	0x3d1e5fa2	0.03866542
152	0x3ce91170	0.028450698
153	0x3c8ae6b4	0.016955711
154	0x3c9cabc2	0.01912487
155	0x3cdd74ef	0.027033297
156	0x3d0a4ddf	0.03376567
157	0x3cc398da	0.023876596
158	0x3c863c08	0.016386047
159	0x3c979e0d	0.018507982
160	0xbc3f404c	-0.011673044
161	0x3bb69888	0.0055723824
162	0x3c462780	0.0120943785
163	0xbc71023c	-0.014710005
164	0x3b6dd320	0.003628917
165	0x3c043f5c	0.008071747
166	0x3b39ae68	0.0028332714
167	0xbbb655f8	-0.0055644475
168	0x3c059e00	0.008155346
169	0x3c068808	0.008211143
170	0x3bbf7364	0.005842613
171	0xbb33f050	-0.002745647
172	0xbb879408	-0.0041375197
173	0x3adb18d0	0.0016715769
174	0xbb34e4d0	-0.0027602203
175	0xbb989398	-0.0046562664
176	0x3c23a310	0.009987608
177	0x3c5c019c	0.013428118
178	0xbacabf20	-0.0015468337
179	0xbb654538	-0.0034983885
180	0x396f1480	0.00022800453
181	0xba7490a0	-0.0009329412
182	0x3b762e60	0.0037564263
183	0x3b8f7ac8	0.0043786503
184	0xbc688384	-0.014191512
185	0xbbbcf284	-0.005766215
186	0x3c5795cc	0.013158273
187	0x3bc773c0	0.0060867965
188	0xba4bb9a0	-0.0007771496
189	0xbc1a5808	-0.009420402
190	0xbc1c9f42	-0.009559454
191	0xbc6550fa	-0.013996357
192	0x3cb151a9	0.021645384
193	0x3cda86fc	0.026675694
194	0x3d1acdd5	0.037793953
195	0x3cffbd24	0.031218119
196	0x3c2258ab	0.009908835
197	0x3c795244	0.015217368
198	0x3cbe84a7	0.023256613
199	0x3d2598d8	0.040428966
200	0x3ce45115	0.027870694
201	0x3ca4faab	0.020139059
202	0x3d085d42	0.033292063
203	0x3c96845f	0.018373666
204	0x3c9396e8	0.018016294
205	0x3d18a704	0.037268654
206	0x3bbc333e	0.005743413
207	0x3b0a487d	0.0021100335
208	0xbbcc5df1	-0.0062367846
209	0x3cdf9068	0.027290538
210	0x3cd4732d	0.025933826
211	0x3cdee805	0.027210245
212	0x3c2ebc5a	0.010665024
213	0x3bb797a8	0.0056027956
214	0x3ba452a5	0.005014735
215	0x3c9da35e	0.019242939
216	0x3c9f7a38	0.019467458
217	0x3cc7d59a	0.024393845
218	0x3cf0ddc9	0.02940263
219	0x3d03e093	0.032196593
220	0x3cb438c6	0.021999728
221	0x3c64cb31	0.01396446
222	0x3c576624	0.013146911
223	0x3c365af8	0.011130087
224	0x3bd197e4	0.0063962806
225	0xbbfb6028	-0.007671375
226	0xbb4e1528	-0.0031445716
227	0xbc135450	-0.00899227
228	0xbb3a98d0	-0.002847243
229	0xbc342e86	-0.01099742
230	0xbc274640	-0.01020962
231	0x3ba9d600	0.0051829815
232	0xbb982a20	-0.0046436936
233	0x3c1e0a34	0.009645987
234	0xbba4410c	-0.005012637
235	0xbc3bcb10	-0.011461988
236	0xbb34ac68	-0.0027568582
237	0xbbf830d0	-0.0075741783
238	0xbb9ca460	-0.004780337
239	0xbc73b5fc	-0.014874931
240	0x3c0f3acc	0.008742046
241	0xbc323a76	-0.010878196
242	0x3c00ab8e	0.007853402
243	0x3be85668	0.0070903786
244	0x3c36e510	0.011163011
245	0xbc445d86	-0.011985188
246	0x3c381d48	0.01123745
247	0xbbf20c80	-0.007386744
248	0x3bbdfcc8	0.005797956
249	0x3c7069d2	0.014673667
250	0xbb106aa8	-0.0022036228
251	0xb8fd6900	-0.00012083538
252	0xbb6bc190	-0.0035973527
253	0xbc55c18c	-0.013046633
254	0x3bf5b5d4	0.0074984822
255	0xbc7e22c2	-0.015511217

exp_avg f4 [1, 4096]
0	0xb782fe06	-1.5615497e-05
1	0xb79cc2b1	-1.868731e-05
2	0xb7b833a1	-2.195855e-05
3	0xb73921ea	-1.10347555e-05
4	0xb77c5a1e	-1.50413525e-05
5	0xb7bd5bb0	-2.2573251e-05
6	0xb775bb33	-1.4646724e-05
7	0xb7e64542	-2.7450387e-05
8	0xb7b7e194	-2.1920343e-05
9	0xb8124de6	-3.488166e-05
10	0xb79ed1a0	-1.8932682e-05
11	0xb7b59084	-2.1644177e-05
12	0xb7c5ef9f	-2.3595812e-05
13	0xb8186ac4	-3.6339057e-05
14	0xb7272992	-9.9636545e-06
15	0xb7beae90	-2.2731052e-05
16	0xb7b7a706	-2.1893076e-05
17	0xb7d53bc1	-2.5419404e-05
18	0xb70c3abb	-8.3583245e-06
19	0xb7e5a030	-2.737352e-05
20	0xb7d23968	-2.5060683e-05
21	0xb7a61015	-1.979623e-05
22	0xb7a1b2d8	-1.9275976e-05
23	0xb78e48aa	-1.6961556e-05
24	0xb7a78cea	-1.997357e-05
25	0xb796990e	-1.7952665e-05
26	0xb7ba5170	-2.221085e-05
27	0xb80acc9d	-3.3092325e-05
28	0xb78ae581	-1.6557753e-05
29	0xb7d12e89	-2.4936411e-05
30	0xb7ac2945	-2.0523215e-05
31	0xb789c7ba	-1.6424678e-05
32	0x00000000	0.0
33	0x00000000	0.0
34	0x00000000	0.0
35	0x00000000	0.0
36	0x00000000	0.0
37	0x00000000	0.0
38	0x00000000	0.0
39	0x00000000	0.0
40	0x00000000	0.0
41	0x00000000	0.0
42	0x00000000	0.0
43	0x00000000	0.0
44	0x00000000	0.0
45	0x00000000	0.0
46	0x00000000	0.0
47	0x00000000	0.0
48	0x00000000	0.0
49	0x00000000	0.0
50	0x00000000	0.0
51	0x00000000	0.0
52	0x00000000	0.0
53	0x00000000	0.0
54	0x00000000	0.0
55	0x00000000	0.0
56	0x00000000	0.0
57	0x00000000	0.0
58	0x00000000	0.0
59	0x00000000	0.0
60	0x00000000	0.0
61	0x00000000	0.0
62	0x00000000	0.0
63	0x00000000	0.0
64	0xb7d3fb19	-2.5270087e-05
65	0xb781c3f9	-1.5469255e-05
66	0xb81d0b3b	-3.7442176e-05
67	0xb7a9e0d8	-2.0251071e-05
68	0xb7ac2eb6	-2.052575e-05
69	0xb7da74b2	-2.6041966e-05
70	0xb7e3109d	-2.7068245e-05
71	0xb7885ef9	-1.6256688e-05
72	0xb7ec8222	-2.819399e-05
73	0xb7e26d8c	-2.6992311e-05
74	0xb798a94b	-1.8198645e-05
75	0xb833ceb4	-4.2869433e-05
76	0xb7ba799d	-2.2229558e-05
77	0xb7ce9284	-2.462534e-05
78	0xb7b0e1cd	-2.1085982e-05
79	0xb7811171	-1.538612e-05
80	0xb77b6c15	-1.4985931e-05
81	0xb800a3ab	-3.0670006e-05
82	0xb6a24822	-4.8363736e-06
83	0xb800c83d	-3.0704065e-05
84	0xb7880ea9	-1.621929e-05
85	0xb7b181a9	-2.1160422e-05
86	0xb767f81b	-1.38264395e-05
87	0xb7b9761d	-2.210872e-05
88	0xb7a3fe20	-1.954945e-05
89	0xb7c032b9	-2.2911803e-05
90	0xb79576b1	-1.7817454e-05
91	0xb7986f3d	-1.8171611e-05
92	0xb79cd0e9	-1.869393e-05
93	0xb7bfee06	-2.2879813e-05
94	0xb7bcb9a6	-2.2497796e-05
95	0xb788e57e	-1.6319329e-05
96	0x00000000	0.0
97	0x00000000	0.0
98	0x00000000	0.0
99	0x00000000	0.0
100	0x00000000	0.0
101	0x00000000	0.0
102	0x00000000	0.0
103	0x00000000	0.0
104	0x00000000	0.0
105	0x00000000	0.0
106	0x00000000	0.0
107	0x00000000	0.0
108	0x00000000	0.0
109	0x00000000	0.0
110	0x00000000	0.0
111	0x00000000	0.0
112	0x00000000	0.0
113	0x00000000	0.0
114	0x00000000	0.0
115	0x00000000	0.0
116	0x00000000	0.0
117	0x00000000	0.0
118	0x00000000	0.0
119	0x00000000	0.0
120	0x00000000	0.0
121	0x00000000	0.0
122	0x00000000	0.0
123	0x00000000	0.0
124	0x00000000	0.0
125	0x00000000	0.0
126	0x00000000	0.0
127	0x00000000	0.0
128	0xb7b06a24	-2.103026e-05
129	0xb7cae33e	-2.4186094e-05
130	0xb7bad6c8	-2.2272943e-05
131	0xb7bd35d4	-2.2555621e-05
132	0xb7e0e88a	-2.6811165e-05
133	0xb79c8ccc	-1.8662213e-05
134	0xb790eabf	-1.727545e-05
135	0xb7e1d66a	-2.6921934e-05
136	0xb74fb909	-1.2381243e-05
137	0xb78f9014	-1.711402e-05
138	0xb7846622	-1.5783186e-05
139	0xb78a8b2c	-1.6515689e-05
140	0xb822bcd2	-3.8799662e-05
141	0xb76a19dc	-1.3953508e-05
142	0xb70f30b3	-8.534803e-06
143	0xb7a6c189	-1.9878864e-05
144	0xb740c4f2	-1.1489947e-05
145	0xb7ae1bbd	-2.0755333e-05
146	0xb7b6ba21	-2.1782764e-05
147	0xb780d414	-1.5357546e-05
148	0xb75da693	-1.321141e-05
149	0xb76d9c42	-1.4162682e-05
150	0xb803a76a	-3.138875e-05
151	0xb798d89b	-1.8220677e-05
152	0xb76058b2	-1.3372091e-05
153	0xb7e39814	-2.7131326e-05
154	0xb7f189ee	-2.8793667e-05
155	0xb79af9d1	-1.847456e-05
156	0xb787c608	-1.618547e-05
157	0xb7ad3b16	-2.0650721e-05
158	0xb75bafc0	-1.3094337e-05
159	0xb808d4e0	-3.2623182e-05
160	0x00000000	0.0
161	0x00000000	0.0
162	0x00000000	0.0
163	0x00000000	0.0
164	0x00000000	0.0
165	0x00000000	0.0
166	0x00000000	0.0
167	0x00000000	0.0
168	0x00000000	0.0
169	0x00000000	0.0
170	0x00000000	0.0
171	0x00000000	0.0
172	0x00000000	0.0
173	0x00000000	0.0
174	0x00000000	0.0
175	0x00000000	0.0
176	0x00000000	0.0
177	0x00000000	0.0
178	0x00000000	0.0
179	0x00000000	0.0
180	0x00000000	0.0
181	0x00000000	0.0
182	0x00000000	0.0
183	0x00000000	0.0
184	0x00000000	0.0
185	0x00000000	0.0
186	0x00000000	0.0
187	0x00000000	0.0
188	0x00000000	0.0
189	0x00000000	0.0
190	0x00000000	0.0
191	0x00000000	0.0
192	0xb807eefc	-3.240908e-05
193	0xb79e1d48	-1.8848703e-05
194	0xb7c88b6f	-2.3906787e-05
195	0xb766e618	-1.3762641e-05
196	0xb79a9ed8	-1.8432198e-05
197	0xb7a4af19	-1.963186e-05
198	0xb7ef4965	-2.8525197e-05
199	0xb783edca	-1.5727146e-05
200	0xb7c657d2	-2.3644334e-05
201	0xb79ad0b2	-1.8455412e-05
202	0xb7a0e00b	-1.9177814e-05
203	0xb779c643	-1.4887718e-05
204	0xb80b3552	-3.318984e-05
205	0xb7f4d2e1	-2.9185265e-05
206	0xb80505b6	-3.171499e-05
207	0xb7901847	-1.7177443e-05
208	0xb7525985	-1.2537818e-05
209	0xb773655a	-1.4507526e-05
210	0xb71c8c77	-9.331029e-06
211	0xb790f26f	-1.727903e-05
212	0xb7bbeabb	-2.2401442e-05
213	0xb782f769	-1.5612417e-05
214	0xb78c4161	-1.6719745e-05
215	0xb7794114	-1.4856709e-05
216	0xb798ba5f	-1.8206598e-05
217	0xb78ba85d	-1.6648492e-05
218	0xb7b8535b	-2.1973325e-05
219	0xb79eb31e	-1.8918476e-05
220	0xb79efb8e	-1.8952207e-05
221	0xb7b5a803	-2.1655118e-05
222	0xb7c62f56	-2.3625482e-05
223	0xb7bc8200	-2.2471882e-05
224	0x00000000	0.0
225	0x00000000	0.0
226	0x00000000	0.0
227	0x00000000	0.0
228	0x00000000	0.0
229	0x00000000	0.0
230	0x00000000	0.0
231	0x00000000	0.0
232	0x00000000	0.0
233	0x00000000	0.0
234	0x00000000	0.0
235	0x00000000	0.0
236	0x00000000	0.0
237	0x00000000	0.0
238	0x00000000	0.0
239	0x00000000	0.0
240	0x00000000	0.0
241	0x00000000	0.0
242	0x00000000	0.0
243	0x00000000	0.0
244	0x00000000	0.0
245	0x00000000	0.0
246	0x00000000	0.0
247	0x00000000	0.0
248	0x00000000	0.0
249	0x00000000	0.0
250	0x00000000	0.0
251	0x00000000	0.0
252	0x00000000	0.0
253	0x00000000	0.0
254	0x00000000	0.0
255	0x00000000	0.0

exp_avg_sq f4 [1, 4096]
0	0x38518a03	4.9958016e-05
1	0x38087cdb	3.2541207e-05
2	0x3835263f	4.3189382e-05
3	0x382191b7	3.85211e-05
4	0x38159027	3.565862e-05
5	0x3809a273	3.2814638e-05
6	0x383731fb	4.3677148e-05
7	0x387274c5	5.7806046e-05
8	0x3802667f	3.1089872e-05
9	0x3874f073	5.839807e-05
10	0x386ded9b	5.672649e-05
11	0x3863835f	5.4243366e-05
12	0x3859b158	5.1901996e-05
13	0x380bd88e	3.3341865e-05
14	0x381ca81b	3.734986e-05
15	0x388b0e7f	6.6307366e-05
16	0x38127668	3.4919387e-05
17	0x3830f00e	4.218524e-05
18	0x37b479e8	2.151444e-05
19	0x38310fe8	4.2214902e-05
20	0x381cc903	3.7380505e-05
21	0x383eb331	4.5466415e-05
22	0x381139ef	3.462465e-05
23	0x3831aed8	4.2362924e-05
24	0x38260269	3.957973e-05
25	0x383d5deb	4.514858e-05
26	0x3818dfcb	3.6448047e-05
27	0x38323b99	4.249401e-05
28	0x3850f134	4.9815702e-05
29	0x38557391	5.0890787e-05
30	0x382bad18	4.0930783e-05
31	0x3866aba2	5.499612e-05
32	0x00000000	0.0
33	0x00000000	0.0
34	0x00000000	0.0
35	0x00000000	0.0
36	0x00000000	0.0
37	0x00000000	0.0
38	0x00000000	0.0
39	0x00000000	0.0
40	0x00000000	0.0
41	0x00000000	0.0
42	0x00000000	0.0
43	0x00000000	0.0
44	0x00000000	0.0
45	0x00000000	0.0
46	0x00000000	0.0
47	0x00000000	0.0
48	0x00000000	0.0
49	0x00000000	0.0
50	0x00000000	0.0
51	0x00000000	0.0
52	0x00000000	0.0
53	0x00000000	0.0
54	0x00000000	0.0
55	0x00000000	0.0
56	0x00000000	0.0
57	0x00000000	0.0
58	0x00000000	0.0
59	0x00000000	0.0
60	0x00000000	0.0
61	0x00000000	0.0
62	0x00000000	0.0
63	0x00000000	0.0
64	0x3834068e	4.292145e-05
65	0x38182a77	3.6279172e-05
66	0x384ad6b6	4.8360518e-05
67	0x3888b0ba	6.517903e-05
68	0x37dddcf6	2.6448146e-05
69	0x380889b3	3.255317e-05
70	0x384cd9e9	4.8840335e-05
71	0x38327f07	4.255681e-05
72	0x38576ed8	5.1363226e-05
73	0x37e32d68	2.7081653e-05
74	0x38145af2	3.537065e-05
75	0x38828807	6.22422e-05
76	0x38490e1c	4.7935275e-05
77	0x38301800	4.198402e-05
78	0x38348a94	4.3044405e-05
79	0x38447850	4.684209e-05
80	0x38180df4	3.625262e-05
81	0x38186871	3.6336893e-05
82	0x3838c327	4.405077e-05
83	0x386c96c9	5.6407214e-05
84	0x3821afc2	3.854908e-05
85	0x381f42f3	3.7970905e-05
86	0x38066049	3.2037762e-05
87	0x388b9f35	6.657691e-05
88	0x38035f1b	3.1321408e-05
89	0x380ce5f5	3.3592765e-05
90	0x38479c7e	4.7591042e-05
91	0x3817b580	3.617024e-05
92	0x381265d8	3.4903962e-05
93	0x3840f4ab	4.6004232e-05
94	0x37d6aae6	2.5590369e-05
95	0x37f64cf0	2.9361312e-05
96	0x00000000	0.0
97	0x00000000	0.0
98	0x00000000	0.0
99	0x00000000	0.0
100	0x00000000	0.0
101	0x00000000	0.0
102	0x00000000	0.0
103	0x00000000	0.0
104	0x00000000	0.0
105	0x00000000	0.0
106	0x00000000	0.0
107	0x00000000	0.0
108	0x00000000	0.0
109	0x00000000	0.0
110	0x00000000	0.0
111	0x00000000	0.0
112	0x00000000	0.0
113	0x00000000	0.0
114	0x00000000	0.0
115	0x00000000	0.0
116	0x00000000	0.0
117	0x00000000	0.0
118	0x00000000	0.0
119	0x00000000	0.0
120	0x00000000	0.0
121	0x00000000	0.0
122	0x00000000	0.0
123	0x00000000	0.0
124	0x00000000	0.0
125	0x00000000	0.0
126	0x00000000	0.0
127	0x00000000	0.0
128	0x383d384c	4.5113542e-05
129	0x38372868	4.366823e-05
130	0x385cf267	5.2677842e-05
131	0x382ce119	4.1217634e-05
132	0x3816b83e	3.5934376e-05
133	0x3817446c	3.606493e-05
134	0x381c1877	3.7216083e-05
135	0x381f41a0	3.7969672e-05
136	0x381369d6	3.51461e-05
137	0x384eadd4	4.9276117e-05
138	0x37de8965	2.6528442e-05
139	0x3862efc7	5.410591e-05
140	0x3882403a	6.210846e-05
141	0x38277433	3.992412e-05
142	0x382eea5a	4.170309e-05
143	0x3808609d	3.2514905e-05
144	0x37f0211b	2.8625645e-05
145	0x38601488	5.3424883e-05
146	0x38418598	4.6139205e-05
147	0x382f8b5c	4.185304e-05
148	0x37d97667	2.5923551e-05
149	0x381a30fc	3.676208e-05
150	0x383821bf	4.3900447e-05
151	0x3824334b	3.9148417e-05
152	0x37fbf710	3.003658e-05
153	0x383bdcad	4.4789795e-05
154	0x3819e4ae	3.6691017e-05
155	0x38468cca	4.7338e-05
156	0x37b2a520	2.1296146e-05
157	0x38338a8c	4.2805957e-05
158	0x381f0f41	3.792276e-05
159	0x386b27de	5.6065495e-05
160	0x00000000	0.0
161	0x00000000	0.0
162	0x00000000	0.0
163	0x00000000	0.0
164	0x00000000	0.0
165	0x00000000	0.0
166	0x00000000	0.0
167	0x00000000	0.0
168	0x00000000	0.0
169	0x00000000	0.0
170	0x00000000	0.0
171	0x00000000	0.0
172	0x00000000	0.0
173	0x00000000	0.0
174	0x00000000	0.0
175	0x00000000	0.0
176	0x00000000	0.0
177	0x00000000	0.0
178	0x00000000	0.0
179	0x00000000	0.0
180	0x00000000	0.0
181	0x00000000	0.0
182	0x00000000	0.0
183	0x00000000	0.0
184	0x00000000	0.0
185	0x00000000	0.0
186	0x00000000	0.0
187	0x00000000	0.0
188	0x00000000	0.0
189	0x00000000	0.0
190	0x00000000	0.0
191	0x00000000	0.0
192	0x38577c3c	5.1375697e-05
193	0x38314a10	4.2269065e-05
194	0x385faef5	5.3330285e-05
195	0x3826ae56	3.9739847e-05
196	0x38164217	3.5824338e-05
197	0x382f7a8d	4.1837386e-05
198	0x3865f8c9	5.4829554e-05
199	0x3843fe6c	4.672857e-05
200	0x383266ad	4.253413e-05
201	0x380fc965	3.428142e-05
202	0x382cae9f	4.1170624e-05
203	0x3808b092	3.258937e-05
204	0x384d07b2	4.8882976e-05
205	0x38111232	3.458764e-05
206	0x38a9b1ee	8.09169e-05
207	0x3935e6a9	0.00017347433
208	0x38ada0f0	8.27926e-05
209	0x39137002	0.00014060739
210	0x38efdcdd	0.00011437547
211	0x38a101a3	7.677383e-05
212	0x384ceb1a	4.8856346e-05
213	0x386f7545	5.7091256e-05
214	0x38e7769e	0.000110370325
215	0x3934c9d4	0.00017241325
216	0x3911a750	0.00013890606
217	0x38d006f5	9.919509e-05
218	0x388863f0	6.5036e-05
219	0x383a42e7	4.4408163e-05
220	0x3832f443	4.2665994e-05
221	0x384b8835	4.8525824e-05
222	0x388a42db	6.5928056e-05
223	0x38296db3	4.0394905e-05
224	0x00000000	0.0
225	0x00000000	0.0
226	0x00000000	0.0
227	0x00000000	0.0
228	0x00000000	0.0
229	0x00000000	0.0
230	0x00000000	0.0
231	0x00000000	0.0
232	0x00000000	0.0
233	0x00000000	0.0
234	0x00000000	0.0
235	0x00000000	0.0
236	0x00000000	0.0
237	0x00000000	0.0
238	0x00000000	0.0
239	0x00000000	0.0
240	0x00000000	0.0
241	0x00000000	0.0
242	0x00000000	0.0
243	0x00000000	0.0
244	0x00000000	0.0
245	0x00000000	0.0
246	0x00000000	0.0
247	0x00000000	0.0
248	0x00000000	0.0
249	0x00000000	0.0
250	0x00000000	0.0
251	0x00000000	0.0
252	0x00000000	0.0
253	0x00000000	0.0
254	0x00000000	0.0
255	0x00000000	0.0
