src/checkpoint.pth.tar (torch_old, 22748 bytes, 1 tensors)

linear.weight f4 [1, 4096]
00000000: aedd 6bbc b8c4 023c e8a6 f339 9947 d13b
00000010: ac91 51bc 05d9 1ebb a492 3e3c 8138 02bc
00000020: 5f95 c939 7a6b 113a 7060 1fbc 26a9 653c
00000030: 70c4 83bc 3bcc 4c3a a3e2 82bb 98e5 543c
00000040: d047 083c 820b 5fbc 15d0 30bb 6259 573c
00000050: 6244 ff39 6d2a dc3b 5234 60bc 4381 a9bb
00000060: 0e34 85bc ae07 48bc be17 46bc 44d0 6abb
00000070: 5e4c 8e3a b8bf 84bc 3b79 d2bb b8c0 81ba
00000080: ba60 6f3c bf10 b1bb a694 37bc 7618 e53a
00000090: ea6c d639 05cb 54ba ce9b 8dbb f6bd f4ba
000000a0: 9899 363c f43b 58bc 299b b43b 92d5 fbbb
000000b0: 37d7 6a3b 00e8 15bc 6c9d 57bc 0150 b83b
000000c0: 767a 603b 75c0 db3b 67f1 d8bb d6cb 083b
000000d0: 4812 283c 50ee 303c 3239 163c 26e9 87bb
000000e0: 6a8f 13bc a11e c139 c63d 3bbc a7f1 b4bb
000000f0: 7ee9 873a 9197 963b 8caf 28bb fd79 a43b
00000100: 0e6f 6abc fd74 a33b b0eb 36bc 4ced 60bc
00000110: 2a5b 2f3a b203 523c 7e09 ad3a b924 973b
00000120: 9c60 47bb 8359 eab8 438a 413a 89f6 00bc
00000130: 6ae1 3f3c ca4f 2fbc a9ee e83b 72d5 1c3c
00000140: 0eee 15bc 1c2c 4d3c 273c b53b a3bd 5a3c
00000150: 574f c23b da12 26bc b068 0d3c 1846 3f3c
00000160: c05c 0d3c 4dbe 983b 4ac0 db3a aa00 0939
00000170: 8a43 6c3c 555a 0cbc 7c2d 283b 586a aeba
00000180: 1a53 573c ea5f 023c d4fd 2dbc 15df c93b
00000190: 9b8e c5bb 8ac2 223c 6c58 67bc e8a7 76bc
000001a0: e5ea c43b e7a8 adbb 8cf5 493b 0261 443c
000001b0: 184e 41bc 0c57 3fbb 3b51 d4bb 88eb f53b
000001c0: d30e e1bb b68d 483c e919 e2b9 81c2 693b
000001d0: b645 0ebc c223 cdba 6400 75bc cd44 02bc
000001e0: eb8a b1bb 524c 66bc 46b4 9dba f629 e63b
000001f0: 4608 27bc f35b 03bb 72cb 2f3c fe6b 2abc
00000200: b43f 6d3b d52b 89bb d057 453c 927f 16bb
00000210: e4b7 443c 672e c7bb c42f 56bc 91e8 04ba
00000220: 683e 28bc ce33 1bbc 5631 243c 311a 5d3c
00000230: d0d0 32bc 3321 87bc 4189 913b ce39 60bc
00000240: a724 b0bb ad43 b53b af75 ba3b e6e9 303b
00000250: 317d df3b 687a 1dbc 609c 69bb 8a62 5ebb
00000260: 3f40 6dbc aab9 21bc 1ebb 923a d51d 513b
00000270: 90c4 fdbb ac35 223c e8bb 1bbc 7f0d bfb8
00000280: e88b 4d3c e0cd 193c 1a31 623c 4588 5e3b
00000290: e26f 40bc 53a6 cdbb 7f0f b2bb 8ec9 4cbc
000002a0: 27ee debb b06f 7fbc d255 08bc e26f 87bc
000002b0: 00af 6a3c d0c5 c63a 7058 643c 1c89 023c
000002c0: 6673 6b3c c38a b7bb 6199 08bc 9ffd f7bb
000002d0: 0a0c 7abc 965c f6ba 9e94 b03a ae40 023c
000002e0: 9800 80bb f1b8 863b 3528 ba3b 54b9 123b
000002f0: 3c49 3b3b 5ba7 e1bb 6467 f73b 0811 84bc
00000300: 5859 6a3a 0aad ef3b 16d2 103c 3984 c23b
00000310: 6cdf 59bb bae2 263c 8ab9 80bc 4846 81bb
00000320: 20be ccbb f8d8 1d3c 5205 723c 62dd 24bb
00000330: 7d8e a93b 3211 5ebb 1b6a 89ba 5dd8 063c
00000340: 8295 ae3b 4796 07bc 0726 e83b f1f6 993c
00000350: c67b 2abb bb4b 60bb f380 f1ba f529 ba3b
00000360: 39d2 ac3c b5e8 163c 9d7a 80bc d496 4ebc
00000370: bf39 d339 6d68 33bb 2645 313c 2b4f acbb
00000380: 1a95 323c 32f9 26bc 57dd 78bb 7874 a8ba
00000390: 5056 13bc 24b0 96b9 fd77 8dbb b909 09bc
000003a0: 960b 59bc 28c5 7fba ceab 5e3c 8197 a73b
000003b0: 365f 53bc fae2 10bc 8c93 183c 9ffd ddbb
000003c0: 352d 1dbb 97f1 07bc 35f9 d43b b4b4 3cbc
000003d0: 1e1c 81bc b2ae 4bbc 4079 6cbc bcab 103a
000003e0: b1f0 c03a 7f34 c1bb 1111 b53b b60e 073a
000003f0: bc26 393b 23e2 eb3b fcc8 103b ca97 6e3c
-0.014396114 0.007981472 0.00046472927 0.006386709 -0.012791079 -0.002423824 0.011631642 -0.007948042
0.00038448998 0.0005547326 -0.009727582 0.014017379 -0.01608488 0.0007812415 -0.0039943024 0.012994193
0.008317903 -0.0136135835 -0.0026979495 0.013143869 0.0004868834 0.0067189247 -0.013684349 -0.00517288
-0.016260173 -0.012208862 -0.0120906215 -0.0035829702 0.00108565 -0.0162047 -0.006423143 -0.0009899354
0.014610464 -0.0054036076 -0.011204874 0.0017478603 0.00040898408 -0.00081174105 -0.004321552 -0.0018672335
0.011145018 -0.013197888 0.0055116606 -0.0076853717 0.0035833844 -0.009149551 -0.013160091 0.0056247716
0.003425268 0.0067062923 -0.0066205743 0.0020873449 0.010258265 0.010799006 0.00916891 -0.0041476665
-0.009006361 0.0003683465 -0.011428302 -0.0055219713 0.0010369269 0.004595705 -0.00257394 0.005019425
-0.014308704 0.0049883113 -0.011164591 -0.013728451 0.0006689305 0.012818264 0.0013201681 0.004612532
-0.0030422574 -0.00011174662 0.00073829683 -0.007871279 0.011711458 -0.010700176 0.0071085286 0.009572374
-0.009150995 0.0125227235 0.0055308524 0.013350877 0.005929868 -0.0101363305 0.0086309165 0.0116744265
0.00862807 0.0046613575 0.0016765681 0.00013065586 0.014420399 -0.008566459 0.0025661876 -0.0013306839
0.013142372 0.007957438 -0.010619599 0.0061606267 -0.006028963 0.009934077 -0.0141202025 -0.01505468
0.006009447 -0.0052996757 0.0030816523 0.011986019 -0.011798404 -0.002919617 -0.00647941 0.007504884
-0.0068682223 0.012240818 -0.00043125384 0.0035668912 -0.008683613 -0.0015650915 -0.014953706 -0.007950974
-0.0054181716 -0.014056282 -0.0012031875 0.007024045 -0.010194844 -0.002004382 0.0107296575 -0.010401724
0.00362013 -0.0041861334 0.012044862 -0.0022964221 0.012006734 -0.0060785296 -0.013072912 -0.00050700555
-0.010268785 -0.0094728 0.010021528 0.013495014 -0.010914043 -0.016495323 0.004441411 -0.013685657
-0.005375463 0.005531749 0.0056902985 0.0026994883 0.006820344 -0.009611703 -0.0035646185 -0.0033933246
-0.0144806495 -0.009870926 0.0011194681 0.003190865 -0.0077443793 0.009900492 -0.00950525 -9.1101036e-05
0.012545563 0.009387463 0.013805652 0.0033955735 -0.011745425 -0.006275931 -0.005433976 -0.012499226
-0.0068032923 -0.015590593 -0.008321242 -0.016532842 0.01432395 0.0015165154 0.013937101 0.00796726
0.014370775 -0.0056012585 -0.00833735 -0.007568076 -0.015261659 -0.0018795903 0.0013472026 0.007949991
-0.003906321 0.004111402 0.0056810626 0.0022388296 0.0028577587 -0.0068864054 0.007550167 -0.016121402
0.0008939705 0.007314329 0.008839151 0.0059361723 -0.0033244742 0.010185892 -0.015713472 -0.0039451458
-0.0062482506 0.009634249 0.014771776 -0.0025156369 0.0051744566 -0.003388476 -0.0010483892 0.008230296
0.0053278813 -0.008275575 0.0070846113 0.018794509 -0.0026013716 -0.0034224826 -0.0018425271 0.005681271
0.021096336 0.009210755 -0.015683467 -0.012609202 0.0004028808 -0.0027375475 0.010819709 -0.005258461
0.010899806 -0.010191249 -0.0037973726 -0.0012852093 -0.0089927465 -0.00028741464 -0.0043172822 -0.0083641345
-0.013247391 -0.00097568566 0.013590766 0.005114496 -0.012901118 -0.008843178 0.009312522 -0.0067746188
-0.0023983244 -0.008297346 0.0064994344 -0.011517692 -0.015760478 -0.012431787 -0.014433205 0.00055187545
0.0014720169 -0.0058961506 0.005525716 0.00051520334 0.0028251847 0.0071985885 0.0022092452 0.0145625565
