src/checkpoint.pth.tar (torch_old, 55518 bytes, 3 tensors)

linear.weight f4 [1, 4096]
000000 65 d3 cd 3c 47 18 af 3c 56 a7 f7 3b 36 55 95 3c
       0.025125215 0.021373881 0.00755779 0.018229108
000010 5f 43 18 3c f9 80 1c 3c e2 a5 c4 3b 0c 77 ba 3c
       0.009293406 0.009552234 0.00600122 0.022761844
000020 fd 12 8f 3b 3f 27 05 3c ca 70 1d 3c 23 c5 62 3b
       0.0043662773 0.008127033 0.009609411 0.0034602366
000030 e4 c6 89 3c 8d e5 4e bb a0 5c bc 3c b6 af 9c 3a
       0.016818471 -0.0031569928 0.022993386 0.0011954221
000040 34 47 ec 3c a3 ec 83 3c c4 4b 03 3c 1e 17 d8 3c
       0.028842546 0.016104048 0.008013669 0.02637821
000050 74 ef 82 3c 55 67 d6 3c 17 59 8b 3c 05 0f f8 3b
       0.01598332 0.02617232 0.017010255 0.00757015
000060 08 1e a5 3c 99 31 27 3c 00 2b a0 3c b2 45 d5 3c
       0.020155922 0.010204696 0.019551754 0.02603421
000070 04 1e af 3c 3f 48 90 3b eb 9c be 3c 92 e8 88 3c
       0.021376617 0.0044031437 0.023268184 0.01671246
000080 7a 01 02 3c 86 08 1c bc a4 6a 7d bc 0c d1 c5 bb
       0.007934922 -0.0095235165 -0.01546732 -0.006036883
000090 9c 5b 44 bc d6 0e 52 3c d8 78 93 3b cc 13 d4 3b
       -0.011984732 0.01282092 0.0045004897 0.0064720865
0000a0 fc ec a1 3b 00 82 8e b9 04 59 48 3c 38 e4 35 bc
       0.004941581 -0.00027181208 0.012228254 -0.011101775
0000b0 20 f3 80 3a f4 ba 2e bc 50 e0 9d 3b e0 52 b0 bb
       0.0009838082 -0.01066469 0.004818 -0.005380973
0000c0 98 e2 9c 3b 78 57 55 bb 06 53 54 3c 50 bb 17 bc
       0.0047877543 -0.0032553356 0.012959247 -0.009260967
0000d0 8a ad 18 bc e6 af 18 bc e2 41 66 3c e4 9f aa 3b
       -0.009318719 -0.009319281 0.014053794 0.0052070487
0000e0 10 56 76 3c 4e 45 53 bc 98 eb 7d bc fe 48 48 bc
       0.015035167 -0.0128949415 -0.015498064 -0.012224434
0000f0 5a 35 2c bc 6c 61 cf 3b b8 55 b7 3b 76 b7 54 3c
       -0.010510767 0.0063287523 0.0055949353 0.012983194
000100 a4 d1 17 3c 06 b8 86 3b b7 75 b8 3c 1e 04 df 3b
       0.009266291 0.004111293 0.022517068 0.0068059107
000110 6f 43 c0 3c 16 d0 f5 3b 59 1a e8 3c a4 18 c3 b9
       0.023469655 0.0075016124 0.028332876 -0.00037211657
000120 95 2e ec 3b d6 99 b9 3c 41 9c 54 3c ac 30 22 3c
       0.0072077014 0.022656363 0.012976707 0.0098993
000130 55 e1 b3 3c d5 5b ca 3c 31 6f 37 3b a7 73 97 3b
       0.021958033 0.024701992 0.002798986 0.004621941
000140 c2 d9 d4 3c f9 56 18 3c c5 95 0c 3c c8 b3 7b ba
       0.025982741 0.00929808 0.00858063 -0.00096016796
000150 ad b6 f4 3b f1 3f 6e 3c 16 12 39 3c 23 5e b2 3b
       0.0074680657 0.014541612 0.011295816 0.005443351
000160 cb 12 22 3c 32 49 ed 3a d9 cb 9a 3a 86 95 6c 3b
       0.009892176 0.0018103479 0.0011810019 0.0036099865
000170 7c ee 44 39 f5 92 60 3b fd 6e e9 3c 3d c5 8e 3c
       0.00018780859 0.003426728 0.028495306 0.017428035
000180 1c c7 9d 3b 66 c4 6e bc 54 22 28 bc 14 6c aa bb
       0.0048149955 -0.014573192 -0.010262091 -0.005200872
000190 c0 1f 20 3b 86 42 61 bc 64 9b dc bb 58 42 19 bc
       0.0024432987 -0.013748771 -0.006732391 -0.0093541965
0001a0 00 9e 35 38 50 84 be bb f0 ea 8d ba 24 79 2d bc
       4.330091e-05 -0.0058141127 -0.0010827463 -0.010587964
0001b0 98 b7 2f bc d2 59 15 bc 9c 41 af bb 50 0e 4a bc
       -0.0107249245 -0.009115653 -0.0053483974 -0.012332514
0001c0 f6 a5 56 3c 28 3a 4b bb f6 42 5c 3c b0 87 9f 3b
       0.013101092 -0.0031010006 0.013443699 0.00486847
0001d0 b0 c7 58 bc 38 29 31 3c c8 df 8c bb 50 43 c4 bb
       -0.013231203 0.01081305 -0.0042991377 -0.0059894696
0001e0 80 7f 54 bc 50 81 7e bc 18 7d 92 3b c0 af 5f bb
       -0.0129698515 -0.01553376 0.0044704787 -0.0034131855
0001f0 5c 55 c7 3b 00 17 52 bc d6 0f 3e 3c f2 ea 3b bc
       0.0060831737 -0.012822866 0.011600455 -0.01146959
000200 3a e0 07 3c d5 83 96 3c 15 cc c4 3c 09 e0 ea 3c
       0.008293206 0.01837341 0.024023095 0.028671281
000210 75 6b db 3c 7b 2d ab 3a 04 15 8a 3c 39 0d 17 3c
       0.026784638 0.0013059819 0.016855724 0.009219461
000220 78 2b 20 3c 13 3c 92 3b 68 20 db 3c 82 af e3 3a
       0.009775989 0.004462728 0.026748851 0.0017371031
000230 0e c3 95 3c f5 a3 b9 3c 48 63 87 3c 27 54 a9 3b
       0.018281486 0.022661189 0.016526833 0.0051675024
000240 7d be e6 3c 47 d6 92 3c 6a f2 78 3c a0 2c 32 ba
       0.028167004 0.017924441 0.015194515 -0.0006796811
000250 f2 3c c7 3c 69 ec 51 3c db 24 f9 3b 12 3c e2 3c
       0.024321053 0.012812712 0.0076032705 0.027616534
000260 60 8d 99 3c 1a 2b 91 3b 95 8a f0 3b 44 60 91 3c
       0.01874417 0.004430187 0.007340739 0.017746098
000270 81 11 cf 3c 03 14 0f 3c 37 eb fc 3a 90 90 c8 3b
       0.025276901 0.0087327985 0.0019296174 0.006120749
000280 4c 40 3f bc 88 98 b6 3b 80 27 46 3c 3c 02 71 bc
       -0.011673044 0.0055723824 0.0120943785 -0.014710005
000290 20 d3 6d 3b 5c 3f 04 3c 68 ae 39 3b f8 55 b6 bb
       0.003628917 0.008071747 0.0028332714 -0.0055644475
0002a0 00 9e 05 3c 08 88 06 3c 64 73 bf 3b 50 f0 33 bb
       0.008155346 0.008211143 0.005842613 -0.002745647
0002b0 08 94 87 bb d0 18 db 3a d0 e4 34 bb 98 93 98 bb
       -0.0041375197 0.0016715769 -0.0027602203 -0.0046562664
0002c0 10 a3 23 3c 9c 01 5c 3c 20 bf ca ba 38 45 65 bb
       0.009987608 0.013428118 -0.0015468337 -0.0034983885
0002d0 80 14 6f 39 a0 90 74 ba 60 2e 76 3b c8 7a 8f 3b
       0.00022800453 -0.0009329412 0.0037564263 0.0043786503
0002e0 84 83 68 bc 84 f2 bc bb cc 95 57 3c c0 73 c7 3b
       -0.014191512 -0.005766215 0.013158273 0.0060867965
0002f0 a0 b9 4b ba 08 58 1a bc 42 9f 1c bc fa 50 65 bc
       -0.0007771496 -0.009420402 -0.009559454 -0.013996357
000300 da 4f 3c 3c 2c cf a3 3c 89 46 fd 3c 14 a3 be 3c
       0.0114936475 0.019996248 0.030917423 0.023271121
000310 ab 2b 45 3b c3 b8 ca 3b 3f 58 2c 3c 3e 2d ed 3c
       0.0030085843 0.006186576 0.010519086 0.028952237
000320 c4 16 38 3c b2 a1 dc 3b 6a 10 96 3c 94 b7 38 3c
       0.0112358965 0.006733143 0.018318374 0.011274237
000330 c6 0d d2 3b 0c eb d6 3c 80 a7 12 bb d8 b6 09 bb
       0.0064103333 0.026235126 -0.002237767 -0.0021013524
000340 be 69 66 bc 52 4b 9c 3c d9 3d a7 3c c1 4c 92 3c
       -0.014063297 0.019078884 0.020415233 0.017858865
000350 ab 0c 47 3b a0 d5 24 bb 13 51 46 bb 1f a7 96 3c
       0.003037254 -0.0025151744 -0.0030260726 0.018390236
000360 a8 ff 7b 3c 4b 78 96 3c 51 06 93 3c 40 ad 88 3c
       0.015380777 0.018367907 0.017947348 0.016684175
000370 34 11 46 3c ed ea 64 3b b9 c1 c7 3a 3e 2d 7d ba
       0.0120890625 0.0034930066 0.0015240229 -0.00096579257
000380 e4 97 d1 3b 28 60 fb bb 28 15 4e bb 50 54 13 bc
       0.0063962806 -0.007671375 -0.0031445716 -0.00899227
000390 d0 98 3a bb 86 2e 34 bc 40 46 27 bc 00 d6 a9 3b
       -0.002847243 -0.01099742 -0.01020962 0.0051829815
0003a0 20 2a 98 bb 34 0a 1e 3c 0c 41 a4 bb 10 cb 3b bc
       -0.0046436936 0.009645987 -0.005012637 -0.011461988
0003b0 68 ac 34 bb d0 30 f8 bb 60 a4 9c bb fc b5 73 bc
       -0.0027568582 -0.0075741783 -0.004780337 -0.014874931
0003c0 cc 3a 0f 3c 76 3a 32 bc 8e ab 00 3c 68 56 e8 3b
       0.008742046 -0.010878196 0.007853402 0.0070903786
0003d0 10 e5 36 3c 86 5d 44 bc 48 1d 38 3c 80 0c f2 bb
       0.011163011 -0.011985188 0.01123745 -0.007386744
0003e0 c8 fc bd 3b d2 69 70 3c a8 6a 10 bb 00 69 fd b8
       0.005797956 0.014673667 -0.0022036228 -0.00012083538
0003f0 90 c1 6b bb 8c c1 55 bc d4 b5 f5 3b c2 22 7e bc
       -0.0035973527 -0.013046633 0.0074984822 -0.015511217

exp_avg f4 [1, 4096]
000000 4e 71 5f b8 68 be 1c b9 71 fb 24 b9 00 d7 02 b9
       -5.3272866e-05 -0.00014948251 -0.00015733928 -0.0001247786
000010 ad 0b ab b8 1f 64 77 b8 f0 1b d2 b8 18 1b 1e b9
       -8.15609e-05 -5.8982634e-05 -0.00010018784 -0.00015078147
000020 eb d0 bb b8 12 f8 db b8 73 1b ec b8 7b b2 97 b8
       -8.955769e-05 -0.000104889405 -0.0001125847 -7.233486e-05
000030 88 55 12 b9 a1 5b 52 b8 5b 05 4e b7 ce 85 ad b8
       -0.00013955508 -5.0153238e-05 -1.2279804e-05 -8.274206e-05
000040 8b 59 11 b9 56 ca 00 b9 f8 0a 3d b8 93 41 10 b9
       -0.00013861635 -0.00012282407 -4.5071327e-05 -0.00013757338
000050 a2 3e d2 b8 cf bd e6 b8 b6 fa f8 b8 a8 5b 66 b8
       -0.000100252466 -0.00011002609 -0.0001187226 -5.4921635e-05
000060 21 2e 23 b9 90 b0 2f b9 4a d8 00 b9 ba 6c 16 b9
       -0.00015562076 -0.00016755075 -0.00012287605 -0.00014345619
000070 9d 7b 44 b9 d1 5e c9 b8 5c c3 dd b8 c1 69 be b8
       -0.00018738066 -9.602088e-05 -0.0001057449 -9.079604e-05
000080 00 00 00 00 00 00 00 00 00 00 00 00 00 00 00 00
       0.0 0.0 0.0 0.0
000090 00 00 00 00 00 00 00 00 00 00 00 00 00 00 00 00
       0.0 0.0 0.0 0.0
0000a0 00 00 00 00 00 00 00 00 00 00 00 00 00 00 00 00
       0.0 0.0 0.0 0.0
0000b0 00 00 00 00 00 00 00 00 00 00 00 00 00 00 00 00
       0.0 0.0 0.0 0.0
0000c0 00 00 00 00 00 00 00 00 00 00 00 00 00 00 00 00
       0.0 0.0 0.0 0.0
0000d0 00 00 00 00 00 00 00 00 00 00 00 00 00 00 00 00
       0.0 0.0 0.0 0.0
0000e0 00 00 00 00 00 00 00 00 00 00 00 00 00 00 00 00
       0.0 0.0 0.0 0.0
0000f0 00 00 00 00 00 00 00 00 00 00 00 00 00 00 00 00
       0.0 0.0 0.0 0.0
000100 c3 d1 37 b9 39 63 f2 b8 bb 24 eb b8 7d 08 0b b9
       -0.00017530382 -0.00011557941 -0.00011212515 -0.00013259235
000110 99 9c c3 b8 dd e4 f3 b8 09 e2 0f b9 ed 8b 13 b9
       -9.327493e-05 -0.00011629772 -0.00013721747 -0.00014071139
000120 41 b0 e7 b8 5c f2 0e b9 d2 78 53 b8 f7 db 25 b9
       -0.00011047768 -0.00013632461 -5.0418843e-05 -0.0001581757
000130 44 5b ce b8 6b 9c 9e b8 c4 89 f4 b8 7a 58 b6 b8
       -9.839845e-05 -7.563162e-05 -0.000116604875 -8.694916e-05
000140 7b 73 89 b8 2b a3 bc b8 d9 f6 83 b8 03 9e 22 b9
       -6.554179e-05 -8.994931e-05 -6.292546e-05 -0.00015508388
000150 02 44 51 b9 3d 18 d6 b8 59 3d 93 b8 7e 52 52 b9
       -0.00019957128 -0.0001020883 -7.020933e-05 -0.00020057891
000160 66 6f 94 b8 64 84 a1 b8 27 87 ba b8 42 28 ef b8
       -7.0779395e-05 -7.701738e-05 -8.894345e-05 -0.00011403907
000170 85 38 eb b8 d5 1e 91 b8 1e 90 8e b8 4e 26 ab b8
       -0.00011216201 -6.919882e-05 -6.7979316e-05 -8.16105e-05
000180 00 00 00 00 00 00 00 00 00 00 00 00 00 00 00 00
       0.0 0.0 0.0 0.0
000190 00 00 00 00 00 00 00 00 00 00 00 00 00 00 00 00
       0.0 0.0 0.0 0.0
0001a0 00 00 00 00 00 00 00 00 00 00 00 00 00 00 00 00
       0.0 0.0 0.0 0.0
0001b0 00 00 00 00 00 00 00 00 00 00 00 00 00 00 00 00
       0.0 0.0 0.0 0.0
0001c0 00 00 00 00 00 00 00 00 00 00 00 00 00 00 00 00
       0.0 0.0 0.0 0.0
0001d0 00 00 00 00 00 00 00 00 00 00 00 00 00 00 00 00
       0.0 0.0 0.0 0.0
0001e0 00 00 00 00 00 00 00 00 00 00 00 00 00 00 00 00
       0.0 0.0 0.0 0.0
0001f0 00 00 00 00 00 00 00 00 00 00 00 00 00 00 00 00
       0.0 0.0 0.0 0.0
000200 c6 a1 f7 b8 23 29 b2 b8 03 c0 7b b9 1b 2e 05 b9
       -0.000118080105 -8.495364e-05 -0.00024008755 -0.00012701044
000210 9d e1 bd b8 07 56 f2 b8 cd 48 06 b9 8d 3c 1e b9
       -9.054246e-05 -0.00011555483 -0.00012806356 -0.00015090611
000220 98 d4 8c b8 3f 5d 2b b9 3b 7a 00 b9 e0 ab b3 b8
       -6.715319e-05 -0.00016342568 -0.00012252566 -8.567399e-05
000230 c2 92 7b b8 40 5f 15 b9 bb 34 b1 b8 7c ca 13 b9
       -5.9979742e-05 -0.0001424523 -8.4498395e-05 -0.00014094444
000240 cd f3 b7 b8 5e 73 e4 b8 96 39 ac b8 9a 6f 13 b9
       -8.7715314e-05 -0.00010893376 -8.212325e-05 -0.00014060587
000250 28 82 eb b8 d9 7d 18 b9 b3 55 31 b9 00 c7 33 b9
       -0.00011229917 -0.00014542732 -0.00016911961 -0.00017144904
000260 a2 df 18 b9 4a 60 c2 b8 c7 b0 18 b9 71 80 60 b9
       -0.0001457916 -9.268576e-05 -0.00014561704 -0.00021410153
000270 b6 56 16 b9 35 02 2b b9 38 d9 06 b9 7a e2 04 b9
       -0.00014337417 -0.00016308653 -0.00012860156 -0.0001267287
000280 00 00 00 00 00 00 00 00 00 00 00 00 00 00 00 00
       0.0 0.0 0.0 0.0
000290 00 00 00 00 00 00 00 00 00 00 00 00 00 00 00 00
       0.0 0.0 0.0 0.0
0002a0 00 00 00 00 00 00 00 00 00 00 00 00 00 00 00 00
       0.0 0.0 0.0 0.0
0002b0 00 00 00 00 00 00 00 00 00 00 00 00 00 00 00 00
       0.0 0.0 0.0 0.0
0002c0 00 00 00 00 00 00 00 00 00 00 00 00 00 00 00 00
       0.0 0.0 0.0 0.0
0002d0 00 00 00 00 00 00 00 00 00 00 00 00 00 00 00 00
       0.0 0.0 0.0 0.0
0002e0 00 00 00 00 00 00 00 00 00 00 00 00 00 00 00 00
       0.0 0.0 0.0 0.0
0002f0 00 00 00 00 00 00 00 00 00 00 00 00 00 00 00 00
       0.0 0.0 0.0 0.0
000300 b3 2b 0c b9 4b 8e a0 b8 9a 46 73 b9 8c 90 ea b8
       -0.0001336772 -7.655899e-05 -0.00023200587 -0.000111849135
000310 24 f7 58 b9 99 bb 2b b9 3e 24 d0 b8 e0 f9 bc b8
       -0.00020691432 -0.00016377716 -9.9249635e-05 -9.0110814e-05
000320 83 4f 4c b8 d4 7c 9a b8 87 7d d2 b8 ef bd 0f b9
       -4.871144e-05 -7.366543e-05 -0.000100369616 -0.00013708299
000330 f8 d0 17 b9 95 94 d5 b8 0c dc f1 b8 0c 10 8a b7
       -0.00014478329 -0.00010184307 -0.000115327624 -1.6458354e-05
000340 b6 ff 05 b9 e3 da 2e b8 10 24 87 b8 4c e8 f7 b8
       -0.00012779128 -4.1688687e-05 -6.444019e-05 -0.000118211465
000350 8d 1f a9 b8 09 75 a5 b8 79 fc 11 b9 3e 8c 5a b9
       -8.064425e-05 -7.8896126e-05 -0.00013922331 -0.00020842344
000360 0d e5 45 b9 48 ac e8 b7 70 01 3e b8 24 8b 50 b8
       -0.00018872712 -2.773678e-05 -4.530087e-05 -4.972065e-05
000370 da 8a 8e b8 db 44 fa b8 86 61 bb b8 e5 74 04 b9
       -6.796951e-05 -0.00011933754 -8.93502e-05 -0.00012632048
000380 00 00 00 00 00 00 00 00 00 00 00 00 00 00 00 00
       0.0 0.0 0.0 0.0
000390 00 00 00 00 00 00 00 00 00 00 00 00 00 00 00 00
       0.0 0.0 0.0 0.0
0003a0 00 00 00 00 00 00 00 00 00 00 00 00 00 00 00 00
       0.0 0.0 0.0 0.0
0003b0 00 00 00 00 00 00 00 00 00 00 00 00 00 00 00 00
       0.0 0.0 0.0 0.0
0003c0 00 00 00 00 00 00 00 00 00 00 00 00 00 00 00 00
       0.0 0.0 0.0 0.0
0003d0 00 00 00 00 00 00 00 00 00 00 00 00 00 00 00 00
       0.0 0.0 0.0 0.0
0003e0 00 00 00 00 00 00 00 00 00 00 00 00 00 00 00 00
       0.0 0.0 0.0 0.0
0003f0 00 00 00 00 00 00 00 00 00 00 00 00 00 00 00 00
       0.0 0.0 0.0 0.0

exp_avg_sq f4 [1, 4096]
000000 79 11 1d 3a d4 9d 28 3a a4 06 8e 3a 2b 5d 77 3a
       0.00059916783 0.00064322096 0.0010835719 0.00094361854
000010 28 ce 38 3a de 4b cb 3a 56 85 62 3a 92 31 a4 3a
       0.00070497626 0.0015510281 0.00086410844 0.001252698
000020 33 4d 64 3a 1c a3 59 3a ed d9 63 3a 54 cb 14 3a
       0.00087090133 0.0008302198 0.0008691836 0.000567605
000030 28 52 86 3a 5e 73 b3 39 08 f7 4e 39 82 53 8d 3a
       0.0010247873 0.00034227496 0.00019737717 0.0010782334
000040 20 ed 87 3a 52 94 20 3a 64 09 19 3a 6f a8 96 3a
       0.0010370351 0.0006125617 0.0005837886 0.0011494289
000050 51 49 50 3a c6 30 26 3a 1e ee 98 3a 73 e1 2b 3a
       0.00079454953 0.0006339665 0.0011667644 0.0006556727
000060 e7 8e 4c 3a 2a ef c2 3a 0f a7 64 3a c9 20 93 3a
       0.00078032765 0.0014872302 0.00087224034 0.0011224981
000070 5d df 70 3a 85 95 16 3a 83 39 0a 3a 74 a9 91 3a
       0.0009188557 0.0005744326 0.0005272852 0.0011113123
000080 00 00 00 00 00 00 00 00 00 00 00 00 00 00 00 00
       0.0 0.0 0.0 0.0
000090 00 00 00 00 00 00 00 00 00 00 00 00 00 00 00 00
       0.0 0.0 0.0 0.0
0000a0 00 00 00 00 00 00 00 00 00 00 00 00 00 00 00 00
       0.0 0.0 0.0 0.0
0000b0 00 00 00 00 00 00 00 00 00 00 00 00 00 00 00 00
       0.0 0.0 0.0 0.0
0000c0 00 00 00 00 00 00 00 00 00 00 00 00 00 00 00 00
       0.0 0.0 0.0 0.0
0000d0 00 00 00 00 00 00 00 00 00 00 00 00 00 00 00 00
       0.0 0.0 0.0 0.0
0000e0 00 00 00 00 00 00 00 00 00 00 00 00 00 00 00 00
       0.0 0.0 0.0 0.0
0000f0 00 00 00 00 00 00 00 00 00 00 00 00 00 00 00 00
       0.0 0.0 0.0 0.0
000100 b9 f4 69 3a 21 95 91 3a f1 f3 83 3a 26 48 90 3a
       0.0008924711 0.0011107066 0.0010067207 0.001100783
000110 5d aa fc 39 2c 8e 2f 3a 59 2b 34 3a 4f 43 bc 3a
       0.00048192116 0.00066969055 0.00068729144 0.0014363321
000120 42 e8 44 3a 32 3d 5c 3a bc cd 75 3a b3 75 ba 3a
       0.0007511416 0.0008401453 0.0009376665 0.0014225751
000130 72 a0 8e 3a 48 df 0b 3a 0d cf 39 3a 75 d0 07 3a
       0.0010881557 0.00053357007 0.0007088043 0.0005180904
000140 0a 52 4e 3a 1f 47 1c 3a 8d 22 14 3a 27 30 63 3a
       0.0007870501 0.00059615256 0.00056509004 0.0008666538
000150 9b 5a 92 3a 28 30 84 3a fc 42 29 3a 9e 77 ad 3a
       0.0011165919 0.0010085152 0.000645682 0.0013234501
000160 47 32 8d 3a 78 88 0b 3a 67 40 54 3a ca 3c ad 3a
       0.001077243 0.00053227646 0.0008096755 0.0013216969
000170 e4 18 15 3a 97 cf 5c 3a 4d 0d 38 3a 7e 8c 1e 3a
       0.0005687608 0.0008423267 0.0007021025 0.00060481566
000180 00 00 00 00 00 00 00 00 00 00 00 00 00 00 00 00
       0.0 0.0 0.0 0.0
000190 00 00 00 00 00 00 00 00 00 00 00 00 00 00 00 00
       0.0 0.0 0.0 0.0
0001a0 00 00 00 00 00 00 00 00 00 00 00 00 00 00 00 00
       0.0 0.0 0.0 0.0
0001b0 00 00 00 00 00 00 00 00 00 00 00 00 00 00 00 00
       0.0 0.0 0.0 0.0
0001c0 00 00 00 00 00 00 00 00 00 00 00 00 00 00 00 00
       0.0 0.0 0.0 0.0
0001d0 00 00 00 00 00 00 00 00 00 00 00 00 00 00 00 00
       0.0 0.0 0.0 0.0
0001e0 00 00 00 00 00 00 00 00 00 00 00 00 00 00 00 00
       0.0 0.0 0.0 0.0
0001f0 00 00 00 00 00 00 00 00 00 00 00 00 00 00 00 00
       0.0 0.0 0.0 0.0
000200 2f 1d 89 3a 3b f2 1b 3a 95 18 e1 3a 74 bd 4e 3a
       0.0010460968 0.0005948876 0.0017173464 0.0007886507
000210 f2 5f e0 39 53 c0 7a 3a 4d 41 58 3a be 75 1c 3a
       0.00042796094 0.00095654017 0.00082494767 0.00059684727
000220 2f 0f ff 39 06 88 79 3a f0 62 1c 3a 37 65 1f 3a
       0.00048648703 0.0009518865 0.00059656706 0.0006080451
000230 13 1a 35 3a d5 76 51 3a 4a 21 5b 3a d4 24 87 3a
       0.00069084874 0.00079904246 0.00083591475 0.0010310658
000240 5d 99 34 3a 85 4e 3a 3a 43 16 7a 3a f2 c0 bb 3a
       0.0006889308 0.0007107037 0.00095400604 0.001432447
000250 4b 2c f3 39 e6 f9 38 3a 67 82 b8 3a 49 71 80 3a
       0.00046381573 0.0007056281 0.0014076949 0.0009799387
000260 6f 51 44 3a 51 42 62 3a 57 99 9d 3a 6e e4 9e 3a
       0.0007488941 0.0008631098 0.0012023848 0.0012122521
000270 67 72 68 3a e7 75 3e 3a 5c cc a8 3a b8 52 94 3a
       0.0008867145 0.00072654936 0.0012878287 0.0011316156
000280 00 00 00 00 00 00 00 00 00 00 00 00 00 00 00 00
       0.0 0.0 0.0 0.0
000290 00 00 00 00 00 00 00 00 00 00 00 00 00 00 00 00
       0.0 0.0 0.0 0.0
0002a0 00 00 00 00 00 00 00 00 00 00 00 00 00 00 00 00
       0.0 0.0 0.0 0.0
0002b0 00 00 00 00 00 00 00 00 00 00 00 00 00 00 00 00
       0.0 0.0 0.0 0.0
0002c0 00 00 00 00 00 00 00 00 00 00 00 00 00 00 00 00
       0.0 0.0 0.0 0.0
0002d0 00 00 00 00 00 00 00 00 00 00 00 00 00 00 00 00
       0.0 0.0 0.0 0.0
0002e0 00 00 00 00 00 00 00 00 00 00 00 00 00 00 00 00
       0.0 0.0 0.0 0.0
0002f0 00 00 00 00 00 00 00 00 00 00 00 00 00 00 00 00
       0.0 0.0 0.0 0.0
000300 a9 26 83 3a ac 76 05 3a 3e 49 b3 3a 8e 49 d6 39
       0.0010006028 0.0005091231 0.0013678444 0.00040872063
000310 c0 65 80 3a cd 45 2b 3a 07 0c 62 3a e9 18 b1 3a
       0.0009795949 0.00065335335 0.0008623008 0.0013511452
000320 38 4a 20 3a 39 9e 2d 3a fb d9 b7 3a ea 60 b8 3a
       0.0006114575 0.0006623003 0.0014026755 0.0014066969
000330 cc 80 e0 39 3d b8 81 3a 84 2c 81 3b 84 28 16 3c
       0.0004282057 0.0009896826 0.0039420743 0.009164933
000340 b0 2d 81 3b ae 13 aa 3b 46 14 a7 3b 5b 7c 3b 3b
       0.003942214 0.0051903343 0.0050988523 0.0028608057
000350 ee 5e 61 3a df 81 d4 3a f6 c1 8d 3b e7 b6 a6 3b
       0.00085972145 0.0016213021 0.0043261005 0.0050877216
000360 65 0b d3 3a 2d 5f 87 3a f5 72 1d 3a 60 2c 2a 3a
       0.0016101418 0.0010328047 0.00060062046 0.0006491598
000370 17 78 94 3a 29 63 28 3a 90 bb fe 39 76 b9 a2 3a
       0.0011327293 0.00064234674 0.000485864 0.0012414891
000380 00 00 00 00 00 00 00 00 00 00 00 00 00 00 00 00
       0.0 0.0 0.0 0.0
000390 00 00 00 00 00 00 00 00 00 00 00 00 00 00 00 00
       0.0 0.0 0.0 0.0
0003a0 00 00 00 00 00 00 00 00 00 00 00 00 00 00 00 00
       0.0 0.0 0.0 0.0
0003b0 00 00 00 00 00 00 00 00 00 00 00 00 00 00 00 00
       0.0 0.0 0.0 0.0
0003c0 00 00 00 00 00 00 00 00 00 00 00 00 00 00 00 00
       0.0 0.0 0.0 0.0
0003d0 00 00 00 00 00 00 00 00 00 00 00 00 00 00 00 00
       0.0 0.0 0.0 0.0
0003e0 00 00 00 00 00 00 00 00 00 00 00 00 00 00 00 00
       0.0 0.0 0.0 0.0
0003f0 00 00 00 00 00 00 00 00 00 00 00 00 00 00 00 00
       0.0 0.0 0.0 0.0
