src/model_best.pth.tar (torch_old, 22526 bytes, 1 tensors)

linear.weight f4 [1, 4096]
-0.014422574 0.007955012 0.00043827025 0.0063602505 -0.012817538 -0.0024502825 0.011605182 -0.007974502
0.000358031 0.0005282735 -0.009754042 0.013990919 -0.01611134 0.00075478235 -0.0040207608 0.012967733
0.008291443 -0.013640043 -0.002724408 0.013117409 0.0004604244 0.0066924663 -0.013710809 -0.0051993383
-0.016286634 -0.012235322 -0.012117081 -0.0036094286 0.0010591911 -0.01623116 -0.0064496016 -0.0010163941
0.014584004 -0.005430066 -0.011231334 0.0017214015 0.0003825251 -0.0008382002 -0.0043480103 -0.0018936922
0.011118558 -0.0132243475 0.005485202 -0.00771183 0.003556926 -0.009176011 -0.013186551 0.005598313
0.0033988096 0.006679834 -0.0066470327 0.0020608862 0.010231805 0.010772546 0.00914245 -0.004174125
-0.00903282 0.00034188753 -0.011454762 -0.0055484297 0.0010104679 0.0045692464 -0.0026003984 0.0049929665
-0.014335164 0.004961853 -0.0111910505 -0.013754911 0.0006424713 0.012791804 0.0012937093 0.0045860736
-0.0030687158 -0.00013820565 0.00071183767 -0.007897738 0.011684998 -0.010726635 0.00708207 0.009545914
-0.009177455 0.012496264 0.0054931855 0.013279945 0.0058625443 -0.01016279 0.008604457 0.011647967
0.008601611 0.004634899 0.0016501092 0.000104196835 0.01439394 -0.0085929185 0.0025397292 -0.0013571428
0.013115912 0.007930978 -0.010646059 0.0061341682 -0.006055421 0.009907617 -0.014146662 -0.01508114
0.0059829885 -0.005326134 0.003055194 0.011959559 -0.011824864 -0.0029460755 -0.0065058684 0.0074784257
-0.0068946807 0.012214358 -0.0004577129 0.0035404328 -0.008710072 -0.0015915504 -0.014980166 -0.0079774335
-0.00544463 -0.014082742 -0.0012296464 0.0069975867 -0.010221303 -0.0020308406 0.010703198 -0.010428184
0.0035936716 -0.004212592 0.012018402 -0.0023228806 0.011980274 -0.006104988 -0.013099371 -0.0005334647
-0.010295245 -0.00949926 0.009995068 0.013467772 -0.010954941 -0.016521784 0.004384709 -0.013730479
-0.0054031797 0.005505291 0.0056091635 0.002592625 0.0067390753 -0.009642965 -0.003681112 -0.0035321407
-0.014594681 -0.009897386 0.0010930093 0.0031644066 -0.0077708387 0.009874032 -0.009531709 -0.00011756006
0.0125191035 0.0093610035 0.013779192 0.003369115 -0.011771885 -0.0063023893 -0.0054604346 -0.012525686
-0.0068297507 -0.015617054 -0.008347702 -0.016559303 0.01429749 0.0014900565 0.013910641 0.0079408
0.014344315 -0.005627717 -0.008363809 -0.007594534 -0.015288119 -0.001906049 0.0013207437 0.007923531
-0.0039327787 0.004084944 0.005654604 0.0022123712 0.0028313003 -0.006912864 0.0075237085 -0.016147863
0.0008675113 0.0072878706 0.008812691 0.005909714 -0.0033509326 0.010159432 -0.015741302 -0.0039790235
-0.006289552 0.009577043 0.014675709 -0.0026453089 0.0050179577 -0.003407622 -0.0012534213 0.008083763
0.00520402 -0.008310237 0.0068664076 0.018543743 -0.0029607771 -0.0034472167 -0.0023266461 0.0052610165
0.020800548 0.0091827065 -0.01571036 -0.012722295 0.0003513201 -0.002764006 0.010793249 -0.0052849194
0.010873347 -0.010217709 -0.0038238317 -0.0013116682 -0.009019206 -0.00031387366 -0.0043437406 -0.008390594
-0.013273851 -0.0010021445 0.013564306 0.005088038 -0.012927578 -0.008869638 0.009286062 -0.006801077
-0.0024247828 -0.008323805 0.006472976 -0.011544152 -0.015786938 -0.012458247 -0.014459665 0.00052541634
0.001445558 -0.005922609 0.0054992577 0.00048874435 0.0027987263 0.00717213 0.0021827868 0.014536097
00000000: a94c 6cbc bd55 023c a3c7 e539 a669 d03b
00000010: a700 52bc eb94 20bb a923 3e3c 7ca7 02bc
00000020: 1bb6 bb39 d67b 0a3a 6bcf 1fbc 2b3a 653c
00000030: eefb 83bc 96dc 453a 96c0 83bb 9d76 543c
00000040: d5d8 073c 7d7a 5fbc fb8b 32bb 67ea 563c
00000050: 1e65 f139 7a4c db3b 4da3 60bc 365f aabb
00000060: 8c6b 85bc a976 48bc b986 46bc 2a8c 6cbb
00000070: 8ed4 8a3a 36f7 84bc 2e57 d3bb 8738 85ba
00000080: bff1 6e3c b2ee b1bb a103 38bc a6a0 e13a
00000090: a68d c839 aaba 5bba c179 8ebb c435 f8ba
000000a0: 9d2a 363c efaa 58bc 36bd b33b 85b3 fcbb
000000b0: 511b 693b fb56 16bc 670c 58bc 0e72 b73b
000000c0: 90be 5e3b 82e2 da3b 5acf d9bb ef0f 073b
000000d0: 4da3 273c 557f 303c 37ca 153c 19c7 88bb
000000e0: 65fe 13bc 5e3f b339 c1ac 3bbc 9acf b5bb
000000f0: ad71 843a 9eb9 953b 726b 2abb 0a9c a33b
00000100: 09de 6abc 0a97 a23b ab5a 37bc 475c 61bc
00000110: 856b 283a b794 513c ae91 a93a c646 963b
00000120: 821c 49bb 4ceb 10b9 9e9a 3a3a 8465 01bc
00000130: 6f72 3f3c c5be 2fbc b610 e83b 7766 1c3c
00000140: 095d 16bc 21bd 4c3c 2e00 b43b 2094 593c
00000150: 961a c03b d581 26bc b5f9 0c3c 1dd7 3e3c
00000160: c5ed 0c3c 5ae0 973b 7a48 d83a 4084 da38
00000170: 8fd4 6b3c 50c9 0cbc 9671 263b 28e2 b1ba
00000180: 1fe4 563c eff0 013c cf6c 2ebc 2201 c93b
00000190: 8e6c c6bb 8f53 223c 67c7 67bc e316 77bc
000001a0: f20c c43b da86 aebb a639 483b 07f2 433c
000001b0: 13bd 41bc f212 41bb 2e2f d5bb 950d f53b
000001c0: c6ec e1bb bb1e 483c 2ff9 efb9 9b06 683b
000001d0: b1b4 0ebc 929b d0ba 5f6f 75bc c8b3 02bc
000001e0: de68 b2bb 4dbb 66bc 162c a1ba 034c e53b
000001f0: 4177 27bc da17 05bb 775c 2f3c f9da 2abc
00000200: ce83 6b3b c809 8abb d5e8 443c 783b 18bb
00000210: e948 443c 5a0c c8bb bf9e 56bc 36d8 0bba
00000220: 63ad 28bc c9a2 1bbc 5bc2 233c eea7 5c3c
00000230: 5a7c 33bc b158 87bc 9bad 8f3b cef5 60bc
00000240: 280d b1bb ba65 b43b 13cd b73b 08e9 293b
00000250: 76d3 dc3b 87fd 1dbc d03e 71bb 7d7b 67bb
00000260: 871e 6fbc a528 22bc 4e43 8f3a ef61 4f3b
00000270: 85a2 febb b1c6 213c e32a 1cbc 948a f6b8
00000280: ed1c 4d3c e55e 193c 1fc2 613c 5fcc 5c3b
00000290: ddde 40bc 4684 cebb 72ed b2bb 8938 4dbc
000002a0: 1acc dfbb acde 7fbc cdc4 08bc 60a7 87bc
000002b0: 0540 6a3c 004e c33a 75e9 633c 211a 023c
000002c0: 6b04 6b3c b668 b8bb 5c08 09bc 92db f8bb
000002d0: 057b 7abc 64d4 f9ba ce1c ad3a b3d1 013c
000002e0: 8ade 80bb feda 853b 424a b93b 6efd 103b
000002f0: 568d 393b 4e85 e2bb 7189 f63b 8648 84bc
00000300: b369 633a 17cf ee3b 1b63 103c 46a6 c13b
00000310: 529b 5bbb bf73 263c e7f3 80bc 7862 82bb
00000320: 9618 cebb 08e9 1c3c 6372 703c eb5c 2dbb
00000330: ae6d a43b 6952 5fbb d749 a4ba c271 043c
00000340: 7c86 aa3b a927 08bc 9aff e03b 0ce9 973c
00000350: 9909 42bb b3ea 61bb a57a 18bb 9b64 ac3b
00000360: e965 aa3c 1073 163c 03b3 80bc 2c71 50bc
00000370: 6331 b839 5324 35bb 2bd6 303c 1e2d adbb
00000380: 1f26 323c 2d68 27bc 4099 7abb 48ec abba
00000390: 4bc5 13bc 698f a4b9 f055 8ebb b478 09bc
000003a0: 917a 59bc 645a 83ba d33c 5e3c 8eb9 a63b
000003b0: 31ce 53bc f551 11bc 9124 183c 92db debb
000003c0: 1be9 1ebb 9260 08bc 421b d43b af23 3dbc
000003d0: 9c53 81bc ad1d 4cbc 3be8 6cbc 18bc 093a
000003e0: e178 bd3a 7212 c2bb 1e33 b43b 141f 003a
000003f0: d66a 373b 3004 eb3b 160d 0f3b cf28 6e3c
