src/model_best.pth.tar (torch_old, 104615 bytes, 1 tensors)

linear.weight f4 [1, 24576]
0.0055323807 -0.0047706007 0.0054536224 0.0011029905 0.0046218974 0.0007730191 0.0029849408 -0.000991518
0.0048265127 0.00085197896 -0.0030687952 0.0015350892 -0.0030298631 -0.0008389457 -0.0026817147 0.0041406886
-0.005126173 -0.0030316089 -0.0018921108 -0.003926324 0.00051118253 -0.0063911616 0.005669949 -0.0055095307
0.0048337947 0.00097069156 -0.0021621308 0.0038509504 0.0009032768 0.0050630257 0.0006064609 -0.0021026072
0.0016230247 -0.001820697 0.00259372 0.00560433 0.0035964928 -0.0028795504 0.0035914227 0.0010504727
0.0031485388 -0.003978836 -0.006405383 -0.002555427 -0.004983622 0.0051432434 0.0017464408 0.0025513384
0.0019265116 -0.00020184211 0.0049012885 -0.0046231565 0.0003107624 -0.004444717 0.0018760643 -0.002287653
0.0018637166 -0.0014198613 0.005199716 -0.003871654 -0.0038952308 -0.0038954604 0.0056465627 0.0020348893
0.0060472065 -0.0053552133 -0.0064179343 -0.00508148 -0.004381878 0.0024928225 0.002193243 0.005209492
-0.0033850947 -0.0044394326 0.0032936146 -0.0026692513 0.003780614 -0.0016045882 0.0035581326 -0.005047061
-0.0033099798 0.0018538935 0.0012576673 -0.0017172275 0.0037113766 0.004245546 -0.0047166687 -0.0034963607
0.0057500224 -0.0022433212 -0.002352297 -0.006263045 -0.0037438741 0.0015025917 -0.0009328449 -0.0047212145
5.875157e-05 -0.0044481703 -0.0055026957 -0.0036034903 -0.005673748 -0.004152551 0.0062855096 0.0011139344
0.0018748378 -0.0060403566 -0.004280356 -0.002214127 0.000906596 -0.005703788 -0.0028393667 -0.0039097155
-7.3198345e-05 -0.0024644814 -0.00053290516 -0.004413394 -0.0044693076 -0.0038123296 -0.0022743538 -0.005125603
0.005257623 -0.0013568546 0.0053974926 0.001896668 -0.005492491 0.004323534 -0.0018459917 -0.0025360703
-0.005385795 -0.0064325067 0.0017341892 -0.0014843033 0.0023925656 -0.005325789 0.0046449914 -0.0047733155
-0.0011923388 0.0012414786 0.0032022286 0.005058861 0.0057200245 -0.0051488304 0.001514479 -0.002834601
-0.00078990456 -0.0048654038 0.005719383 -0.004772657 0.0033183207 0.0021509116 0.0019819753 -0.0035395965
0.005707217 0.0013108854 0.0007297033 -0.0057122936 0.002586901 -0.001047839 -0.0030131994 0.0053882417
0.0013312874 -0.0036201633 -0.0033194788 -0.0003955038 0.0034708397 -0.0017208955 -0.0037305083 -0.0022752814
-0.0048563755 0.002184036 0.004846634 -0.00609621 0.0013906234 0.0032043976 0.0010658023 -0.002362556
0.0032385269 0.003261306 0.0022943576 -0.001211782 -0.0017800117 0.00059154205 -0.0012177313 -0.0019917905
0.003986549 0.0053911316 -0.0007223683 -0.0015190872 2.206688e-06 -0.00047174745 0.0014426787 0.0016967007
-0.005884536 -0.0024449269 0.0052809673 0.0023940445 -0.00040814557 -0.0039367424 -0.003993508 -0.005804864
-0.0021701546 0.0020632946 0.003976437 0.0028542324 -0.0057294485 -0.0039268984 -0.0010975699 0.006079731
0.000831876 -0.0017428193 0.0025481598 -0.0025204772 -0.0042196414 0.004564988 -0.0029913674 -0.0013696295
-0.006436612 0.0041783215 0.004741985 0.0022338915 -0.004538704 -0.0063864463 -0.005271667 0.0046658567
0.0029716573 0.0052769803 0.0032508231 0.0015235688 -0.00015334165 -0.0049420516 -0.005556122 -0.0060573523
0.0025203915 -0.003222705 -0.0013746424 -0.0037619586 -0.0012532584 -0.004580553 -0.004258936 0.0020250638
-0.0019866568 0.0038470803 -0.0021372803 -0.0047702123 -0.001216359 -0.0031830252 -0.0020424437 -0.0061635408
0.0034780453 -0.0045318804 0.003115258 0.0028037557 0.0044664056 -0.0049838084 0.0044967947 -0.0031065054
00000000: f948 b53b b352 9cbb 4db4 b23b 3892 903a
00000010: 4973 973b 6fa4 4a3a ff9e 433b d3f5 81ba
00000020: b927 9e3b 5757 5f3a d71d 49bb 0c35 c93a
00000030: ab90 46bb b1ec 5bba b5bf 2fbb 9dae 873b
00000040: 75f9 a7bb f5ad 46bb b400 f8ba 65a8 80bb
00000050: e100 063a f36c d1bb fbca b93b 4b89 b4bb
00000060: cf64 9e3b 0276 7e3a 89b2 0dbb 3a60 7c3b
00000070: e1c9 6c3a bde7 a53b e7fa 1e3a e5cb 09bb
00000080: acbb d43a 74a4 eeba 67fb 293b 87a4 b73b
00000090: 23b3 6b3b d7b6 3cbb 135e 6b3b 04b0 893a
000000a0: b757 4e3b e560 82bb 3fe4 d1bb f378 27bb
000000b0: a74d a3bb a788 a83b d4e8 e43a 5b34 273b
000000c0: 0183 fc3a 94a5 53b9 fd9a a03b d97d 97bb
000000d0: d3ed a239 fda4 91bb 46e6 f53a 73ec 15bb
000000e0: f447 f43a a41a baba 6162 aa3b 93bb 7dbb
000000f0: 2147 7fbb fb4a 7fbb cd06 b93b c75b 053b
00000100: a527 c63b c97a afbb 894d d2bb 8b82 a6bb
00000110: db95 8fbb 9f5e 233b 83bc 0f3b 63b4 aa3b
00000120: 77d8 5dbb a978 91bb afd9 573b 9bee 2ebb
00000130: 2dc4 773b 0c51 d2ba 8f2f 693b d161 a5bb
00000140: 3fec 58bb 58fe f23a 50d8 a43a 9814 e1ba
00000150: 913a 733b 391e 8b3b 498e 9abb 3323 65bb
00000160: af6a bc3b af04 13bb ff28 1abb 3b3a cdbb
00000170: c95b 75bb 9cf2 c43a 298a 74ba 6bb4 9abb
00000180: 056c 7638 f5c1 91bb f54f b4bb 8928 6cbb
00000190: d9ea b9bb 1f12 88bb adf6 cd3b 7001 923a
000001a0: 1ebd f53a 2fee c5bb 3b42 8cbb e31a 11bb
000001b0: a1a8 6d3a d7e6 babb ab14 3abb 121d 80bb
000001c0: 1082 99b8 2383 21bb a9b2 0bba 3b9e 90bb
000001d0: 4573 92bb 47d8 79bb 530d 15bb adf4 a7bb
000001e0: 2348 ac3b 7cd8 b1ba 73dd b03b 9e99 f83a
000001f0: 5bfa b3bb 6fac 8d3b 34f5 f1ba 3334 26bb
00000200: 537b b0bb c7c7 d2bb bc4d e33a f48c c2ba
00000210: 97cc 1c3b f583 aebb 0335 983b 7969 9cbb
00000220: 4048 9cba 1cb9 a23a 7bdc 513b cdc4 a53b
00000230: 0b6f bb3b 85b7 a8bb 7c81 c63a b7c4 39bb
00000240: 9911 4fba f76d 9fbb a969 bb3b f363 9cbb
00000250: 2f78 593b 4ff6 0c3b 07e4 013b 93f8 67bb
00000260: 9b03 bb3b 04d2 ab3a 8f49 3f3a 312e bbbb
00000270: ff88 293b a457 89ba 1979 45bb d98f b03b
00000280: 987e ae3a 4340 6dbb 9d8b 59bb 9f5b cfb9
00000290: 0777 633b ac8f e1ba 8b7b 74bb e31c 15bb
000002a0: 3b22 9fbb 0b22 0f3b 83d0 9e3b b7c2 c7bb
000002b0: 9445 b63a df00 523b 64b2 8b3a 1dd5 1abb
000002c0: 773d 543b a3bb 553b ef5c 163b a8d4 9eba
000002d0: 484f e9ba b711 1b3a 489c 9fba b388 02bb
000002e0: 99a1 823b 17a8 b03b 515d 3dba 1c1c c7ba
000002f0: 9c16 1436 df54 f7b9 4418 bd3a d463 de3a
00000300: 11d3 c0bb 113b 20bb f70b ad3b 67e5 1c3b
00000310: 5ffc d5b9 caff 80bb f9db 82bb bb36 bebb
00000320: 2739 0ebb 5738 073b c54c 823b 130e 3b3b
00000330: 19be bbbb 36ad 80bb 56dc 8fba 7b38 c73b
00000340: 4112 5a3a 506f e4ba 07ff 263b 972e 25bb
00000350: eb44 8abb e595 953b d10a 44bb 2485 b3ba
00000360: 37ea d2bb 4dea 883b a762 9b3b 7b66 123b
00000370: 69b9 94bb 6545 d1bb f3bd acbb 0be4 983b
00000380: 23c0 423b 85ea ac3b c30b 553b 7cb2 c73a
00000390: 56ca 20b9 eff0 a1bb 2110 b6bb c17c c6bb
000003a0: 272d 253b 0534 53bb 582d b4ba 318b 76bb
000003b0: 6044 a4ba 7718 96bb 8b8e 8bbb efb6 043b
000003c0: 9232 02bb 4c1f 7c3b 9d11 0cbb 714f 9cbb
000003d0: 3c6e 9fba 4d9a 50bb 85da 05bb 87f7 c9bb
000003e0: ebef 633b 2b80 94bb 5b29 4c3b 37bf 373b
000003f0: ed5a 923b 374f a3bb d959 933b 8396 4bbb
