src/model_best.pth.tar (torch_old, 55103 bytes, 3 tensors)

linear.weight f4 [1, 4096]
0	0x3d048a0b	0.03235821
1	0x3cf7a092	0.030227933
2	0x3c85bea8	0.016326264
3	0x3cc911b7	0.02454458
4	0x3c8b285b	0.016987016
5	0x3cc4f308	0.024041668
6	0x3c98bf98	0.018646047
7	0x3d11f458	0.035633415
8	0x3c53408e	0.012893809
9	0x3c8f3571	0.017481538
10	0x3c975b64	0.018476196
11	0x3c9eaf3b	0.019370666
12	0x3cf3bed7	0.029754085
13	0x3c82d17d	0.015969032
14	0x3d0f7fae	0.035033874
15	0x3c16a459	0.009194457
16	0x3d0d220f	0.03445631
17	0x3cf25866	0.029583167
18	0x3c88e8c2	0.01671255
19	0x3d135460	0.03596914
20	0x3d0239a2	0.031793244
21	0x3d1bf2db	0.038073402
22	0x3cd1e35d	0.02562111
23	0x3ca8048d	0.020509982
24	0x3cf000e2	0.029297296
25	0x3cd63a82	0.026150946
26	0x3cf6c344	0.030122407
27	0x3d2b9d15	0.041897852
28	0x3d088113	0.03332622
29	0x3c926799	0.017871665
30	0x3d0dbea2	0.03460563
31	0x3ccc6113	0.024948632
32	0x3c02017a	0.007934922
33	0xbc1c0886	-0.0095235165
34	0xbc7d6aa4	-0.01546732
35	0xbbc5d10c	-0.006036883
36	0xbc445b9c	-0.011984732
37	0x3c520ed6	0.01282092
38	0x3b9378d8	0.0045004897
39	0x3bd413cc	0.0064720865
40	0x3ba1ecfc	0.004941581
41	0xb98e8200	-0.00027181208
42	0x3c485904	0.012228254
43	0xbc35e438	-0.011101775
44	0x3a80f320	0.0009838082
45	0xbc2ebaf4	-0.01066469
46	0x3b9de050	0.004818
47	0xbbb052e0	-0.005380973
48	0x3b9ce298	0.0047877543
49	0xbb555778	-0.0032553356
50	0x3c545306	0.012959247
51	0xbc17bb50	-0.009260967
52	0xbc18ad8a	-0.009318719
53	0xbc18afe6	-0.009319281
54	0x3c6641e2	0.014053794
55	0x3baa9fe4	0.0052070487
56	0x3c765610	0.015035167
57	0xbc53454e	-0.0128949415
58	0xbc7deb98	-0.015498064
59	0xbc4848fe	-0.012224434
60	0xbc2c355a	-0.010510767
61	0x3bcf616c	0.0063287523
62	0x3bb755b8	0.0055949353
63	0x3c54b776	0.012983194
64	0x3ca06f5d	0.019584352
65	0x3c8f384d	0.017482901
66	0x3d1fe689	0.039038215
67	0x3c74471a	0.01490953
68	0x3d0183b7	0.031619754
69	0x3cedb224	0.029015608
70	0x3d0d8236	0.034548007
71	0x3c7b490a	0.015337238
72	0x3c8bc6c3	0.01706255
73	0x3cea3939	0.028591739
74	0x3cc76943	0.024342185
75	0x3cd6b3de	0.026208814
76	0x3d082341	0.033236746
77	0x3d08ddc2	0.03341461
78	0x3c848642	0.0161773
79	0x3c9696f1	0.018382521
80	0x3d23c84e	0.039985947
81	0x3cc4e13a	0.024033178
82	0x3c60b758	0.013715588
83	0x3c8c2d85	0.01711155
84	0x3c7ca293	0.01541962
85	0x3cc17f3b	0.023620239
86	0x3cb5af57	0.022178335
87	0x3c7a2ec2	0.015269937
88	0x3ca2605f	0.019821344
89	0x3c960141	0.018311145
90	0x3c3e382f	0.011610075
91	0x3c78e81e	0.01519206
92	0x3c20dbd1	0.009818033
93	0x3c82b82a	0.015956957
94	0x3d240fea	0.04005424
95	0x3cd19d0d	0.025587583
96	0x3b9dc71c	0.0048149955
97	0xbc6ec466	-0.014573192
98	0xbc282254	-0.010262091
99	0xbbaa6c14	-0.005200872
100	0x3b201fc0	0.0024432987
101	0xbc614286	-0.013748771
102	0xbbdc9b64	-0.006732391
103	0xbc194258	-0.0093541965
104	0x38359e00	4.330091e-05
105	0xbbbe8450	-0.0058141127
106	0xba8deaf0	-0.0010827463
107	0xbc2d7924	-0.010587964
108	0xbc2fb798	-0.0107249245
109	0xbc1559d2	-0.009115653
110	0xbbaf419c	-0.0053483974
111	0xbc4a0e50	-0.012332514
112	0x3c56a5f6	0.013101092
113	0xbb4b3a28	-0.0031010006
114	0x3c5c42f6	0.013443699
115	0x3b9f87b0	0.00486847
116	0xbc58c7b0	-0.013231203
117	0x3c312938	0.01081305
118	0xbb8cdfc8	-0.0042991377
119	0xbbc44350	-0.0059894696
120	0xbc547f80	-0.0129698515
121	0xbc7e8150	-0.01553376
122	0x3b927d18	0.0044704787
123	0xbb5fafc0	-0.0034131855
124	0x3bc7555c	0.0060831737
125	0xbc521700	-0.012822866
126	0x3c3e0fd6	0.011600455
127	0xbc3beaf2	-0.01146959
128	0x3cbc7710	0.023005992
129	0x3ced55dd	0.028971607
130	0x3d0265cd	0.031835366
131	0x3d24e186	0.04025414
132	0x3d1d822b	0.038454216
133	0x3c3ccc79	0.011523359
134	0x3ce94a19	0.028477715
135	0x3cdd5574	0.027018286
136	0x3c8dfa9e	0.017331418
137	0x3c5806f3	0.013185251
138	0x3d1e2c8a	0.038616695
139	0x3c6f6bec	0.014613133
140	0x3d14424d	0.03619604
141	0x3ce56742	0.028003339
142	0x3cd399d3	0.025830185
143	0x3c8fb56c	0.017542563
144	0x3d19b219	0.037523363
145	0x3cf5f9e0	0.030026376
146	0x3ce9e21e	0.028550204
147	0x3c5b403d	0.013382015
148	0x3cfc94fd	0.030832762
149	0x3c9a4cb6	0.018835407
150	0x3cacb84e	0.021083977
151	0x3d1dee33	0.038557243
152	0x3ce7e2df	0.028306423
153	0x3c89d6c6	0.016826045
154	0x3c9b5e4b	0.01896586
155	0x3cdc936a	0.026925761
156	0x3d09bcee	0.033627443
157	0x3cc25517	0.023722215
158	0x3c8561d1	0.016281994
159	0x3c969297	0.018380446
160	0xbc3f404c	-0.011673044
161	0x3bb69888	0.0055723824
162	0x3c462780	0.0120943785
163	0xbc71023c	-0.014710005
164	0x3b6dd320	0.003628917
165	0x3c043f5c	0.008071747
166	0x3b39ae68	0.0028332714
167	0xbbb655f8	-0.0055644475
168	0x3c059e00	0.008155346
169	0x3c068808	0.008211143
170	0x3bbf7364	0.005842613
171	0xbb33f050	-0.002745647
172	0xbb879408	-0.0041375197
173	0x3adb18d0	0.0016715769
174	0xbb34e4d0	-0.0027602203
175	0xbb989398	-0.0046562664
176	0x3c23a310	0.009987608
177	0x3c5c019c	0.013428118
178	0xbacabf20	-0.0015468337
179	0xbb654538	-0.0034983885
180	0x396f1480	0.00022800453
181	0xba7490a0	-0.0009329412
182	0x3b762e60	0.0037564263
183	0x3b8f7ac8	0.0043786503
184	0xbc688384	-0.014191512
185	0xbbbcf284	-0.005766215
186	0x3c5795cc	0.013158273
187	0x3bc773c0	0.0060867965
188	0xba4bb9a0	-0.0007771496
189	0xbc1a5808	-0.009420402
190	0xbc1c9f42	-0.009559454
191	0xbc6550fa	-0.013996357
192	0x3cafd314	0.021462955
193	0x3cd9e545	0.026598582
194	0x3d1a263f	0.03763413
195	0x3cff10ef	0.031136004
196	0x3c20acb7	0.009806803
197	0x3c76c793	0.015062231
198	0x3cbd8e55	0.023139158
199	0x3d251bd1	0.04030973
200	0x3ce3512d	0.027748669
201	0x3ca408ce	0.02002373
202	0x3d07caf9	0.033152554
203	0x3c959cde	0.018263277
204	0x3c927b52	0.01788107
205	0x3d17e1b5	0.037080485
206	0x3bb81bbf	0.005618542
207	0x3b0716bc	0.0020612916
208	0xbbce7f1e	-0.0063017746
209	0x3cdef832	0.027217958
210	0x3cd4155e	0.025889095
211	0x3cde2e3e	0.02712166
212	0x3c2d2a91	0.010569231
213	0x3bb45eca	0.005504464
214	0x3ba19f7b	0.0049323416
215	0x3c9d74cb	0.01922073
216	0x3c9ee506	0.019396316
217	0x3cc7818e	0.024353769
218	0x3cf036bb	0.029322973
219	0x3d035d8e	0.032071643
220	0x3cb3817c	0.021912329
221	0x3c62e587	0.013848669
222	0x3c5540de	0.013015954
223	0x3c3429bf	0.010996281
224	0x3bd197e4	0.0063962806
225	0xbbfb6028	-0.007671375
226	0xbb4e1528	-0.0031445716
227	0xbc135450	-0.00899227
228	0xbb3a98d0	-0.002847243
229	0xbc342e86	-0.01099742
230	0xbc274640	-0.01020962
231	0x3ba9d600	0.0051829815
232	0xbb982a20	-0.0046436936
233	0x3c1e0a34	0.009645987
234	0xbba4410c	-0.005012637
235	0xbc3bcb10	-0.011461988
236	0xbb34ac68	-0.0027568582
237	0xbbf830d0	-0.0075741783
238	0xbb9ca460	-0.004780337
239	0xbc73b5fc	-0.014874931
240	0x3c0f3acc	0.008742046
241	0xbc323a76	-0.010878196
242	0x3c00ab8e	0.007853402
243	0x3be85668	0.0070903786
244	0x3c36e510	0.011163011
245	0xbc445d86	-0.011985188
246	0x3c381d48	0.01123745
247	0xbbf20c80	-0.007386744
248	0x3bbdfcc8	0.005797956
249	0x3c7069d2	0.014673667
250	0xbb106aa8	-0.0022036228
251	0xb8fd6900	-0.00012083538
252	0xbb6bc190	-0.0035973527
253	0xbc55c18c	-0.013046633
254	0x3bf5b5d4	0.0074984822
255	0xbc7e22c2	-0.015511217

exp_avg f4 [1, 4096]
0	0xb71270e6	-8.728564e-06
1	0xb79c470f	-1.8629738e-05
2	0xb750b143	-1.2439038e-05
3	0xb6cf598b	-6.179505e-06
4	0xb75ca748	-1.315197e-05
5	0xb7970ca3	-1.8006487e-05
6	0xb7613889	-1.3424208e-05
7	0xb762473d	-1.3487236e-05
8	0xb741ac51	-1.1543817e-05
9	0xb7d87683	-2.5804393e-05
10	0xb777269c	-1.4731337e-05
11	0xb7919ed4	-1.7359307e-05
12	0xb80bf62e	-3.3369455e-05
13	0xb8051fcc	-3.1739284e-05
14	0xb70f0750	-8.525167e-06
15	0xb7a68d14	-1.9854437e-05
16	0xb7b71389	-2.1824397e-05
17	0xb77b4966	-1.4977855e-05
18	0xb6894d2e	-4.091903e-06
19	0xb77f3f85	-1.5213974e-05
20	0xb7b50593	-2.1579477e-05
21	0xb7af4f81	-2.0898648e-05
22	0xb79090eb	-1.723362e-05
23	0xb7850455	-1.5856853e-05
24	0xb7cedcc8	-2.4659923e-05
25	0xb7ada198	-2.0698455e-05
26	0xb745c233	-1.1787331e-05
27	0xb7d4dd6b	-2.5375475e-05
28	0xb7c127ed	-2.3025985e-05
29	0xb7aed2cd	-2.0840578e-05
30	0xb74e566c	-1.22986785e-05
31	0xb72938fc	-1.0086453e-05
32	0x00000000	0.0
33	0x00000000	0.0
34	0x00000000	0.0
35	0x00000000	0.0
36	0x00000000	0.0
37	0x00000000	0.0
38	0x00000000	0.0
39	0x00000000	0.0
40	0x00000000	0.0
41	0x00000000	0.0
42	0x00000000	0.0
43	0x00000000	0.0
44	0x00000000	0.0
45	0x00000000	0.0
46	0x00000000	0.0
47	0x00000000	0.0
48	0x00000000	0.0
49	0x00000000	0.0
50	0x00000000	0.0
51	0x00000000	0.0
52	0x00000000	0.0
53	0x00000000	0.0
54	0x00000000	0.0
55	0x00000000	0.0
56	0x00000000	0.0
57	0x00000000	0.0
58	0x00000000	0.0
59	0x00000000	0.0
60	0x00000000	0.0
61	0x00000000	0.0
62	0x00000000	0.0
63	0x00000000	0.0
64	0xb780c814	-1.5351958e-05
65	0xb79b1165	-1.848554e-05
66	0xb84c2ac5	-4.8677222e-05
67	0xb7beee93	-2.276086e-05
68	0xb76373de	-1.3557232e-05
69	0xb7ba0d51	-2.2179129e-05
70	0xb7bd87df	-2.2593826e-05
71	0xb7413215	-1.1515357e-05
72	0xb7878534	-1.6155282e-05
73	0xb717594c	-9.021092e-06
74	0xb713113a	-8.765894e-06
75	0xb82c1c74	-4.1034495e-05
76	0xb795d90c	-1.7863254e-05
77	0xb77cb959	-1.5063525e-05
78	0xb7c89c9f	-2.391479e-05
79	0xb71f407f	-9.492155e-06
80	0xb77cb893	-1.5063345e-05
81	0xb7d621c9	-2.552652e-05
82	0xb6769005	-3.6740687e-06
83	0xb808f9da	-3.265762e-05
84	0xb7cb3921	-2.4226088e-05
85	0xb75ab7b4	-1.3036584e-05
86	0xb7435b5d	-1.1644178e-05
87	0xb79c0711	-1.859994e-05
88	0xb79821ee	-1.8135612e-05
89	0xb7b0314c	-2.100379e-05
90	0xb7c652be	-2.364197e-05
91	0xb78b4fa2	-1.6607173e-05
92	0xb72505da	-9.836129e-06
93	0xb7d3aa94	-2.5232592e-05
94	0xb77c8ce1	-1.5053171e-05
95	0xb785880e	-1.5918191e-05
96	0x00000000	0.0
97	0x00000000	0.0
98	0x00000000	0.0
99	0x00000000	0.0
100	0x00000000	0.0
101	0x00000000	0.0
102	0x00000000	0.0
103	0x00000000	0.0
104	0x00000000	0.0
105	0x00000000	0.0
106	0x00000000	0.0
107	0x00000000	0.0
108	0x00000000	0.0
109	0x00000000	0.0
110	0x00000000	0.0
111	0x00000000	0.0
112	0x00000000	0.0
113	0x00000000	0.0
114	0x00000000	0.0
115	0x00000000	0.0
116	0x00000000	0.0
117	0x00000000	0.0
118	0x00000000	0.0
119	0x00000000	0.0
120	0x00000000	0.0
121	0x00000000	0.0
122	0x00000000	0.0
123	0x00000000	0.0
124	0x00000000	0.0
125	0x00000000	0.0
126	0x00000000	0.0
127	0x00000000	0.0
128	0xb7d93cef	-2.589679e-05
129	0xb765fd87	-1.3708493e-05
130	0xb78869ea	-1.6261783e-05
131	0xb80a4c70	-3.2972952e-05
132	0xb7b40bd6	-2.1463184e-05
133	0xb70db9d4	-8.447521e-06
134	0xb7550ef9	-1.2699275e-05
135	0xb7d5be99	-2.5480333e-05
136	0xb75aedd6	-1.3049188e-05
137	0xb7515992	-1.24782255e-05
138	0xb74abdf5	-1.2084366e-05
139	0xb782b801	-1.5582891e-05
140	0xb83fb1d4	-4.5703564e-05
141	0xb7241e10	-9.782161e-06
142	0xb72901f5	-1.0073641e-05
143	0xb7585522	-1.2894425e-05
144	0xb77de073	-1.5132234e-05
145	0xb7eb48bf	-2.8048058e-05
146	0xb7dcf716	-2.6341102e-05
147	0xb7768d21	-1.4695602e-05
148	0xb787f087	-1.6205258e-05
149	0xb6f3a25a	-7.2608645e-06
150	0xb82a0e02	-4.0544204e-05
151	0xb70128ef	-7.69853e-06
152	0xb76bb54d	-1.4049304e-05
153	0xb7b73a48	-2.184244e-05
154	0xb796da9f	-1.7983197e-05
155	0xb7421431	-1.1568002e-05
156	0xb6d14ad3	-6.237396e-06
157	0xb7d3fcca	-2.5270874e-05
158	0xb73c74af	-1.1232841e-05
159	0xb7ab02c0	-2.0386069e-05
160	0x00000000	0.0
161	0x00000000	0.0
162	0x00000000	0.0
163	0x00000000	0.0
164	0x00000000	0.0
165	0x00000000	0.0
166	0x00000000	0.0
167	0x00000000	0.0
168	0x00000000	0.0
169	0x00000000	0.0
170	0x00000000	0.0
171	0x00000000	0.0
172	0x00000000	0.0
173	0x00000000	0.0
174	0x00000000	0.0
175	0x00000000	0.0
176	0x00000000	0.0
177	0x00000000	0.0
178	0x00000000	0.0
179	0x00000000	0.0
180	0x00000000	0.0
181	0x00000000	0.0
182	0x00000000	0.0
183	0x00000000	0.0
184	0x00000000	0.0
185	0x00000000	0.0
186	0x00000000	0.0
187	0x00000000	0.0
188	0x00000000	0.0
189	0x00000000	0.0
190	0x00000000	0.0
191	0x00000000	0.0
192	0xb7eab3c6	-2.7978687e-05
193	0xb782ed3f	-1.5607684e-05
194	0xb7a87f91	-2.0086563e-05
195	0xb70aa755	-8.264401e-06
196	0xb71c792b	-9.326536e-06
197	0xb7d9ab74	-2.5948255e-05
198	0xb7a17589	-1.9247427e-05
199	0xb7b48384	-2.1518914e-05
200	0xb7efbc7f	-2.8578796e-05
201	0xb77cbba8	-1.5064063e-05
202	0xb75b7baf	-1.30822145e-05
203	0xb7791c47	-1.484814e-05
204	0xb7967c26	-1.7939205e-05
205	0xb7ea96f9	-2.7965276e-05
206	0xb7a3308d	-1.9453722e-05
207	0xb735fd5e	-1.0847432e-05
208	0xb7406e7d	-1.1469817e-05
209	0xb7ca9841	-2.4151175e-05
210	0xb7803bfa	-1.5286718e-05
211	0xb7881684	-1.6222948e-05
212	0xb796ee71	-1.7992426e-05
213	0xb74ea4f8	-1.2316967e-05
214	0xb7f9552c	-2.9722774e-05
215	0xb6f95e69	-7.431769e-06
216	0xb7570a6e	-1.2817427e-05
217	0xb7292046	-1.0080699e-05
218	0xb73d2e06	-1.12759935e-05
219	0xb7864aba	-1.6008842e-05
220	0xb731b871	-1.0592966e-05
221	0xb74ea3e1	-1.2316713e-05
222	0xb7f52c90	-2.9227027e-05
223	0xb73b9a1f	-1.1181953e-05
224	0x00000000	0.0
225	0x00000000	0.0
226	0x00000000	0.0
227	0x00000000	0.0
228	0x00000000	0.0
229	0x00000000	0.0
230	0x00000000	0.0
231	0x00000000	0.0
232	0x00000000	0.0
233	0x00000000	0.0
234	0x00000000	0.0
235	0x00000000	0.0
236	0x00000000	0.0
237	0x00000000	0.0
238	0x00000000	0.0
239	0x00000000	0.0
240	0x00000000	0.0
241	0x00000000	0.0
242	0x00000000	0.0
243	0x00000000	0.0
244	0x00000000	0.0
245	0x00000000	0.0
246	0x00000000	0.0
247	0x00000000	0.0
248	0x00000000	0.0
249	0x00000000	0.0
250	0x00000000	0.0
251	0x00000000	0.0
252	0x00000000	0.0
253	0x00000000	0.0
254	0x00000000	0.0
255	0x00000000	0.0

exp_avg_sq f4 [1, 4096]
0	0x387dea67	6.0538205e-05
1	0x38256464	3.943256e-05
2	0x385b8334	5.233586e-05
3	0x3843c95f	4.6679164e-05
4	0x38353ca6	4.3210246e-05
5	0x3826c81d	3.9763854e-05
6	0x385dfdda	5.2926924e-05
7	0x3892e6d1	7.0048154e-05
8	0x381e0401	3.7673864e-05
9	0x389467cc	7.0765236e-05
10	0x3890287c	6.873996e-05
11	0x3889d90a	6.573096e-05
12	0x3883e58e	6.289325e-05
13	0x382975b2	4.0402352e-05
14	0x383dd56b	4.5259872e-05
15	0x38a88198	8.035003e-05
16	0x38317a87	4.23142e-05
17	0x3856689e	5.111901e-05
18	0x37dab277	2.607073e-05
19	0x38568f04	5.115477e-05
20	0x383dfcc4	4.5296518e-05
21	0x386715c2	5.5094955e-05
22	0x382ffb3c	4.195723e-05
23	0x38574fd9	5.133436e-05
24	0x38492a74	4.7961672e-05
25	0x38657816	5.4709693e-05
26	0x38393fdf	4.416692e-05
27	0x3857fa01	5.149283e-05
28	0x387d30b8	6.0365273e-05
29	0x388153cc	6.166808e-05
30	0x38500862	4.959887e-05
31	0x388bc2bb	6.664308e-05
32	0x00000000	0.0
33	0x00000000	0.0
34	0x00000000	0.0
35	0x00000000	0.0
36	0x00000000	0.0
37	0x00000000	0.0
38	0x00000000	0.0
39	0x00000000	0.0
40	0x00000000	0.0
41	0x00000000	0.0
42	0x00000000	0.0
43	0x00000000	0.0
44	0x00000000	0.0
45	0x00000000	0.0
46	0x00000000	0.0
47	0x00000000	0.0
48	0x00000000	0.0
49	0x00000000	0.0
50	0x00000000	0.0
51	0x00000000	0.0
52	0x00000000	0.0
53	0x00000000	0.0
54	0x00000000	0.0
55	0x00000000	0.0
56	0x00000000	0.0
57	0x00000000	0.0
58	0x00000000	0.0
59	0x00000000	0.0
60	0x00000000	0.0
61	0x00000000	0.0
62	0x00000000	0.0
63	0x00000000	0.0
64	0x385a2657	5.2010957e-05
65	0x383863fe	4.3962144e-05
66	0x3875cac7	5.8601403e-05
67	0x38a5a36e	7.898254e-05
68	0x38066c91	3.20492e-05
69	0x382573f2	3.9447048e-05
70	0x38783bd5	5.918353e-05
71	0x38584c23	5.156932e-05
72	0x3882871f	6.224051e-05
73	0x3809a485	3.2816566e-05
74	0x3833c613	4.2861397e-05
75	0x389e2c5b	7.542289e-05
76	0x3873a240	5.808682e-05
77	0x385562b3	5.0875078e-05
78	0x385ac65a	5.215998e-05
79	0x386e141b	5.6762347e-05
80	0x38384120	4.392967e-05
81	0x3838aef8	4.403197e-05
82	0x385fe444	5.3379932e-05
83	0x388f5885	6.8352594e-05
84	0x3843ed72	4.671276e-05
85	0x3840fd5c	4.6012326e-05
86	0x3822d56a	3.8822567e-05
87	0x38a930e4	8.0676546e-05
88	0x381f312d	3.7954353e-05
89	0x382abca3	4.070684e-05
90	0x3871e1d0	5.7669182e-05
91	0x3837d64b	4.3830176e-05
92	0x383166d2	4.2295847e-05
93	0x3869d1ae	5.574681e-05
94	0x3802106c	3.100971e-05
95	0x38153b14	3.557939e-05
96	0x00000000	0.0
97	0x00000000	0.0
98	0x00000000	0.0
99	0x00000000	0.0
100	0x00000000	0.0
101	0x00000000	0.0
102	0x00000000	0.0
103	0x00000000	0.0
104	0x00000000	0.0
105	0x00000000	0.0
106	0x00000000	0.0
107	0x00000000	0.0
108	0x00000000	0.0
109	0x00000000	0.0
110	0x00000000	0.0
111	0x00000000	0.0
112	0x00000000	0.0
113	0x00000000	0.0
114	0x00000000	0.0
115	0x00000000	0.0
116	0x00000000	0.0
117	0x00000000	0.0
118	0x00000000	0.0
119	0x00000000	0.0
120	0x00000000	0.0
121	0x00000000	0.0
122	0x00000000	0.0
123	0x00000000	0.0
124	0x00000000	0.0
125	0x00000000	0.0
126	0x00000000	0.0
127	0x00000000	0.0
128	0x38654a9d	5.4667344e-05
129	0x385df24c	5.2916163e-05
130	0x3885de84	6.383381e-05
131	0x38517d7e	4.9946357e-05
132	0x3836a347	4.3544245e-05
133	0x38374d5f	4.3702657e-05
134	0x383d2739	4.509764e-05
135	0x3840fb42	4.601037e-05
136	0x3832a1dd	4.2589254e-05
137	0x387a72b0	5.9711456e-05
138	0x3806d505	3.214648e-05
139	0x38897f96	6.556434e-05
140	0x389dd560	7.5260876e-05
141	0x384aeac4	4.8379196e-05
142	0x3853f57b	5.053494e-05
143	0x38254235	3.9400726e-05
144	0x38117dd9	3.46879e-05
145	0x3887c45f	6.4738786e-05
146	0x386a8141	5.5910325e-05
147	0x3854b865	5.071647e-05
148	0x3803c1ff	3.1413507e-05
149	0x383ad886	4.454751e-05
150	0x385f1fb7	5.319688e-05
151	0x3846f95c	4.7439113e-05
152	0x3818a94b	3.639729e-05
153	0x3863a58f	5.4275206e-05
154	0x383a7bbc	4.4461092e-05
155	0x38709934	5.736314e-05
156	0x37d87a0a	2.5806035e-05
157	0x38599028	5.1871088e-05
158	0x3840bea5	4.595392e-05
159	0x388e7a57	6.793875e-05
160	0x00000000	0.0
161	0x00000000	0.0
162	0x00000000	0.0
163	0x00000000	0.0
164	0x00000000	0.0
165	0x00000000	0.0
166	0x00000000	0.0
167	0x00000000	0.0
168	0x00000000	0.0
169	0x00000000	0.0
170	0x00000000	0.0
171	0x00000000	0.0
172	0x00000000	0.0
173	0x00000000	0.0
174	0x00000000	0.0
175	0x00000000	0.0
176	0x00000000	0.0
177	0x00000000	0.0
178	0x00000000	0.0
179	0x00000000	0.0
180	0x00000000	0.0
181	0x00000000	0.0
182	0x00000000	0.0
183	0x00000000	0.0
184	0x00000000	0.0
185	0x00000000	0.0
186	0x00000000	0.0
187	0x00000000	0.0
188	0x00000000	0.0
189	0x00000000	0.0
190	0x00000000	0.0
191	0x00000000	0.0
192	0x38828f21	6.225543e-05
193	0x3856d5ed	5.122081e-05
194	0x388786cf	6.462412e-05
195	0x3849fb0f	4.815595e-05
196	0x38361447	4.3411066e-05
197	0x3854a3cb	5.0697283e-05
198	0x388b5652	6.644115e-05
199	0x386d802e	5.662458e-05
200	0x38582e94	5.1541792e-05
201	0x382e3ca6	4.1541316e-05
202	0x38514068	4.9889466e-05
203	0x3825a327	3.9491013e-05
204	0x38787340	5.9235143e-05
205	0x382fcac9	4.191211e-05
206	0x38cda1e2	9.805315e-05
207	0x395c6ca3	0.00021021305
208	0x38d2665b	0.000100326455
209	0x3932a982	0.0001703855
210	0x391154a9	0.00013859816
211	0x38c31aa3	9.303286e-05
212	0x387850be	5.9203005e-05
213	0x389115b6	6.918183e-05
214	0x390c3dce	0.00013374464
215	0x395b1371	0.0002089271
216	0x39308009	0.00016832365
217	0x38fc1568	0.000120202836
218	0x38a5466f	7.8809324e-05
219	0x3861b4f9	5.3812724e-05
220	0x3858da5d	5.170178e-05
221	0x3876a279	5.8802285e-05
222	0x38a78a99	7.9889964e-05
223	0x384d4f11	4.8949445e-05
224	0x00000000	0.0
225	0x00000000	0.0
226	0x00000000	0.0
227	0x00000000	0.0
228	0x00000000	0.0
229	0x00000000	0.0
230	0x00000000	0.0
231	0x00000000	0.0
232	0x00000000	0.0
233	0x00000000	0.0
234	0x00000000	0.0
235	0x00000000	0.0
236	0x00000000	0.0
237	0x00000000	0.0
238	0x00000000	0.0
239	0x00000000	0.0
240	0x00000000	0.0
241	0x00000000	0.0
242	0x00000000	0.0
243	0x00000000	0.0
244	0x00000000	0.0
245	0x00000000	0.0
246	0x00000000	0.0
247	0x00000000	0.0
248	0x00000000	0.0
249	0x00000000	0.0
250	0x00000000	0.0
251	0x00000000	0.0
252	0x00000000	0.0
253	0x00000000	0.0
254	0x00000000	0.0
255	0x00000000	0.0
