src/model_best.pth.tar (torch_old, 55448 bytes, 3 tensors)

linear.weight f4 [1, 4096]
0.025061797 0.021239402 0.007457223 0.018132921 0.009210352 0.009520318 0.005922473 0.02268121
0.0042709094 0.008029037 0.0095249275 0.0033778865 0.01670366 -0.0032050177 0.022970332 0.0011080048
0.028723307 0.016003057 0.007961057 0.026269434 0.01590034 0.026078105 0.016918251 0.0075095715
0.020019244 0.010111135 0.01945727 0.025960097 0.021263834 0.004315306 0.023161577 0.016643027
0.007934922 -0.0095235165 -0.01546732 -0.006036883 -0.011984732 0.01282092 0.0045004897 0.0064720865
0.004941581 -0.00027181208 0.012228254 -0.011101775 0.0009838082 -0.01066469 0.004818 -0.005380973
0.0047877543 -0.0032553356 0.012959247 -0.009260967 -0.009318719 -0.009319281 0.014053794 0.0052070487
0.015035167 -0.0128949415 -0.015498064 -0.012224434 -0.010510767 0.0063287523 0.0055949353 0.012983194
0.009136659 0.0040090657 0.022422437 0.006716711 0.023353772 0.007398014 0.028185772 -0.0004516591
0.0071075014 0.022515409 0.012939418 0.009805885 0.021915518 0.024616882 0.0026973307 0.004530213
0.025918348 0.009198056 0.008503729 -0.0010682823 0.007359102 0.014484815 0.011218837 0.0053220773
0.009841427 0.0017359534 0.0011090043 0.0035472193 7.9535384e-05 0.003358342 0.028423568 0.017334357
0.0048149955 -0.014573192 -0.010262091 -0.005200872 0.0024432987 -0.013748771 -0.006732391 -0.0093541965
4.330091e-05 -0.0058141127 -0.0010827463 -0.010587964 -0.0107249245 -0.009115653 -0.0053483974 -0.012332514
0.013101092 -0.0031010006 0.013443699 0.00486847 -0.013231203 0.01081305 -0.0042991377 -0.0059894696
-0.0129698515 -0.01553376 0.0044704787 -0.0034131855 0.0060831737 -0.012822866 0.011600455 -0.01146959
0.008218478 0.018291432 0.023930062 0.028571788 0.026689472 0.0012145253 0.016740937 0.009125459
0.009682837 0.0043396405 0.026645873 0.0016514938 0.018244281 0.02255174 0.016461164 0.0050801598
0.028083868 0.017836481 0.015113452 -0.0007845891 0.024170749 0.0127066765 0.0075104465 0.027532391
0.018638315 0.004338932 0.0072391704 0.017612945 0.025159141 0.008622963 0.001863545 0.00603281
-0.011673044 0.0055723824 0.0120943785 -0.014710005 0.003628917 0.008071747 0.0028332714 -0.0055644475
0.008155346 0.008211143 0.005842613 -0.002745647 -0.0041375197 0.0016715769 -0.0027602203 -0.0046562664
0.009987608 0.013428118 -0.0015468337 -0.0034983885 0.00022800453 -0.0009329412 0.0037564263 0.0043786503
-0.014191512 -0.005766215 0.013158273 0.0060867965 -0.0007771496 -0.009420402 -0.009559454 -0.013996357
0.011381671 0.019918595 0.03078394 0.023132201 0.0028996882 0.0060489196 0.01043321 0.028884716
0.011187273 0.0066543533 0.01825989 0.011178192 0.006285508 0.026132355 -0.0022731943 -0.0021052437
-0.014078432 0.019064192 0.020396266 0.017809285 0.0029599564 -0.0025758739 -0.0030817622 0.018318562
0.015301777 0.018344183 0.017896842 0.016617643 0.012034409 0.003390975 0.0014314112 -0.0010684299
0.0063962806 -0.007671375 -0.0031445716 -0.00899227 -0.002847243 -0.01099742 -0.01020962 0.0051829815
-0.0046436936 0.009645987 -0.005012637 -0.011461988 -0.0027568582 -0.0075741783 -0.004780337 -0.014874931
0.008742046 -0.010878196 0.007853402 0.0070903786 0.011163011 -0.011985188 0.01123745 -0.007386744
0.005797956 0.014673667 -0.0022036228 -0.00012083538 -0.0035973527 -0.013046633 0.0074984822 -0.015511217
00000000: 664e cd3c 41fe ad3c b85b f43b 7e8b 943c
00000010: 04e7 163c 1cfb 1b3c 4e11 c23b f2cd b93c
00000020: fcf2 8b3b 398c 033c 710e 1c3c 885f 5d3b
00000030: 1dd6 883c 460b 52bb 472c bc3c 793a 913a
00000040: 244d eb3c d818 833c 186f 023c ff32 d73c
00000050: 6e41 823c c0a1 d53c 2598 8a3c da12 f63b
00000060: 66ff a33c 2da9 253c da64 9f3c 45aa d43c
00000070: 7e31 ae3c 6967 8d3b 59bd bd3c f556 883c
00000080: 7a01 023c 8608 1cbc a46a 7dbc 0cd1 c5bb
00000090: 9c5b 44bc d60e 523c d878 933b cc13 d43b
000000a0: fcec a13b 0082 8eb9 0459 483c 38e4 35bc
000000b0: 20f3 803a f4ba 2ebc 50e0 9d3b e052 b0bb
000000c0: 98e2 9c3b 7857 55bb 0653 543c 50bb 17bc
000000d0: 8aad 18bc e6af 18bc e241 663c e49f aa3b
000000e0: 1056 763c 4e45 53bc 98eb 7dbc fe48 48bc
000000f0: 5a35 2cbc 6c61 cf3b b855 b73b 76b7 543c
00000100: edb1 153c 7b5e 833b 42af b73c db17 dc3b
00000110: 6950 bf3c 0a6b f23b d9e5 e63c a9cc ecb9
00000120: 0be6 e83b 3c72 b83c daff 533c dda8 203c
00000130: 2c88 b33c 58a9 c93c b3c5 303b 2e72 943b
00000140: b752 d43c 71b3 163c 3953 0b3c 9b05 8cba
00000150: 9f24 f13b b851 6d3c 37cf 373c d264 ae3b
00000160: f03d 213c ee88 e33a 025c 913a 7778 683b
00000170: 3ccc a638 a117 5c3b 8bd8 e83c c800 8e3c
00000180: 1cc7 9d3b 66c4 6ebc 5422 28bc 146c aabb
00000190: c01f 203b 8642 61bc 649b dcbb 5842 19bc
000001a0: 009e 3538 5084 bebb f0ea 8dba 2479 2dbc
000001b0: 98b7 2fbc d259 15bc 9c41 afbb 500e 4abc
000001c0: f6a5 563c 283a 4bbb f642 5c3c b087 9f3b
000001d0: b0c7 58bc 3829 313c c8df 8cbb 5043 c4bb
000001e0: 807f 54bc 5081 7ebc 187d 923b c0af 5fbb
000001f0: 5c55 c73b 0017 52bc d60f 3e3c f2ea 3bbc
00000200: cca6 063c ead7 953c fa08 c43c 620f ea3c
00000210: e1a3 da3c b530 9f3a 4a24 893c f382 153c
00000220: c3a4 1e3c 8b33 8e3b 7248 da3c f076 d83a
00000230: 0875 953c 6dbe b83c 90d9 863c 7877 a63b
00000240: 2410 e63c d01d 923c 6a9e 773c e2ac 4dba
00000250: bc01 c63c aa2f 503c 311a f63b 9c8b e13c
00000260: 61af 983c 9a2d 8e3b 9036 ed3b 0649 903c
00000270: 8b1a ce3c 5447 0d3c 3242 f43a e1ae c53b
00000280: 4c40 3fbc 8898 b63b 8027 463c 3c02 71bc
00000290: 20d3 6d3b 5c3f 043c 68ae 393b f855 b6bb
000002a0: 009e 053c 0888 063c 6473 bf3b 50f0 33bb
000002b0: 0894 87bb d018 db3a d0e4 34bb 9893 98bb
000002c0: 10a3 233c 9c01 5c3c 20bf caba 3845 65bb
000002d0: 8014 6f39 a090 74ba 602e 763b c87a 8f3b
000002e0: 8483 68bc 84f2 bcbb cc95 573c c073 c73b
000002f0: a0b9 4bba 0858 1abc 429f 1cbc fa50 65bc
00000300: 307a 3a3c 522c a33c 9a2e fc3c be7f bd3c
00000310: b208 3e3b 0436 c63b 0ef0 2a3c a49f ec3c
00000320: d34a 373c c30c da3b c495 953c bc24 373c
00000330: aaf6 cd3b 8513 d63c dff9 14bb 21f8 09bb
00000340: 39a9 66bc 822c 9c3c 1216 a73c c7e4 913c
00000350: d4fb 413b fecf 28bb 64f7 49bb cf10 963c
00000360: 4eb4 7a3c 8a46 963c 669c 923c b921 883c
00000370: f82b 453c 1f3b 5e3b 319e bb3a 8f0a 8cba
00000380: e497 d13b 2860 fbbb 2815 4ebb 5054 13bc
00000390: d098 3abb 862e 34bc 4046 27bc 00d6 a93b
000003a0: 202a 98bb 340a 1e3c 0c41 a4bb 10cb 3bbc
000003b0: 68ac 34bb d030 f8bb 60a4 9cbb fcb5 73bc
000003c0: cc3a 0f3c 763a 32bc 8eab 003c 6856 e83b
000003d0: 10e5 363c 865d 44bc 481d 383c 800c f2bb
000003e0: c8fc bd3b d269 703c a86a 10bb 0069 fdb8
000003f0: 90c1 6bbb 8cc1 55bc d4b5 f53b c222 7ebc

exp_avg f4 [1, 4096]
-6.141791e-05 -0.00014778826 -0.0001372221 -0.0001248431 -9.064148e-05 -4.3216256e-05 -8.716539e-05 -0.00011455064
-0.00010759718 -0.000114536335 -0.00011526677 -7.6373675e-05 -0.00015125134 -4.2846805e-05 -9.28521e-06 -0.00010085375
-0.00015542812 -9.811607e-05 -4.4033855e-05 -0.00015302327 -0.00010013583 -6.941133e-05 -0.00014663006 -6.5822496e-05
-0.00016439531 -0.00014708193 -0.00012136227 -9.022287e-05 -0.00011853597 -7.788878e-05 -8.54442e-05 -9.256433e-05
0.0 0.0 0.0 0.0 0.0 0.0 0.0 0.0
0.0 0.0 0.0 0.0 0.0 0.0 0.0 0.0
0.0 0.0 0.0 0.0 0.0 0.0 0.0 0.0
0.0 0.0 0.0 0.0 0.0 0.0 0.0 0.0
-0.00015986459 -0.0001363721 -0.0001126603 -0.00012925676 -0.00011264433 -9.372826e-05 -0.00016138435 -0.00013318047
-0.00012692095 -0.00017947788 -3.871471e-05 -0.0001543482 -6.8925205e-05 -6.305358e-05 -9.8063756e-05 -7.4544594e-05
-5.791219e-05 -9.065353e-05 -6.092265e-05 -0.0001270912 -0.00014218387 -5.2692536e-05 -7.6340875e-05 -0.00016860018
-6.023172e-05 -5.8342168e-05 -7.7059885e-05 -8.596271e-05 -0.000105922045 -5.2501357e-05 -7.626676e-05 -8.852089e-05
0.0 0.0 0.0 0.0 0.0 0.0 0.0 0.0
0.0 0.0 0.0 0.0 0.0 0.0 0.0 0.0
0.0 0.0 0.0 0.0 0.0 0.0 0.0 0.0
0.0 0.0 0.0 0.0 0.0 0.0 0.0 0.0
-9.388151e-05 -6.531473e-05 -0.00016742454 -0.000115178496 -7.7161814e-05 -0.00013244219 -0.00012359285 -9.3371855e-05
-9.443789e-05 -0.00015760897 -0.00010358459 -7.740544e-05 -3.2713557e-05 -0.00011366771 -7.2845294e-05 -9.8897675e-05
-8.55451e-05 -9.073485e-05 -0.00010727788 -0.00017052001 -0.00012385682 -0.00011352449 -0.00015326573 -9.499636e-05
-0.0001145296 -9.638839e-05 -0.00015440573 -0.00016780352 -0.00014243045 -0.00010970613 -9.2276256e-05 -0.00012785086
0.0 0.0 0.0 0.0 0.0 0.0 0.0 0.0
0.0 0.0 0.0 0.0 0.0 0.0 0.0 0.0
0.0 0.0 0.0 0.0 0.0 0.0 0.0 0.0
0.0 0.0 0.0 0.0 0.0 0.0 0.0 0.0
-0.00015632418 -8.167647e-05 -0.00019224135 -0.00010711722 -0.00012986604 -0.00014049633 -0.00010110712 -9.791326e-05
-4.6685975e-05 -9.3053495e-05 -7.074122e-05 -0.00012934458 -0.000114223505 -0.00012376602 -5.257066e-05 4.2551237e-05
-5.5729565e-06 -1.393168e-05 -4.9308746e-05 -9.594054e-05 -6.7494926e-05 -0.00010095605 -0.00012369466 -0.00021512272
-0.00012580634 -3.794091e-05 -4.417657e-05 -6.535673e-05 -7.244029e-05 -9.966383e-05 -7.3006464e-05 -0.00015494548
0.0 0.0 0.0 0.0 0.0 0.0 0.0 0.0
0.0 0.0 0.0 0.0 0.0 0.0 0.0 0.0
0.0 0.0 0.0 0.0 0.0 0.0 0.0 0.0
0.0 0.0 0.0 0.0 0.0 0.0 0.0 0.0
00000000: 7dcd 80b8 9cf7 1ab9 47e3 0fb9 51e8 02b9
00000010: c616 beb8 1a43 35b8 90cc b6b8 e83a f0b8
00000020: cca5 e1b8 3a33 f0b8 60bb f1b8 ce2a a0b8
00000030: 3999 1eb9 68b6 33b8 acc7 1bb7 7281 d3b8
00000040: 6bfa 22b9 aac3 cdb8 feb0 38b8 df74 20b9
00000050: 0400 d2b8 ed90 91b8 b5c0 19b9 2f0a 8ab8
00000060: 8861 2cb9 013a 1ab9 df83 feb8 0936 bdb8
00000070: 8496 f8b8 3858 a3b8 8130 b3b8 191f c2b8
00000080: 0000 0000 0000 0000 0000 0000 0000 0000
00000090: 0000 0000 0000 0000 0000 0000 0000 0000
000000a0: 0000 0000 0000 0000 0000 0000 0000 0000
000000b0: 0000 0000 0000 0000 0000 0000 0000 0000
000000c0: 0000 0000 0000 0000 0000 0000 0000 0000
000000d0: 0000 0000 0000 0000 0000 0000 0000 0000
000000e0: 0000 0000 0000 0000 0000 0000 0000 0000
000000f0: 0000 0000 0000 0000 0000 0000 0000 0000
00000100: 53a1 27b9 1bff 0eb9 0a44 ecb8 1989 07b9
00000110: 773b ecb8 fa8f c4b8 4839 29b9 5ca6 0bb9
00000120: 1516 05b9 3a32 3cb9 9a61 22b8 88d8 21b9
00000130: f08b 90b8 a23b 84b8 94a7 cdb8 d354 9cb8
00000140: bee6 72b8 3e1d beb8 3387 7fb8 c943 05b9
00000150: 3117 15b9 2e02 5db8 3219 a0b8 44ca 30b9
00000160: 51a1 7cb8 6db4 74b8 369b a1b8 e146 b4b8
00000170: 7722 deb8 e734 5cb8 68f1 9fb8 4aa4 b9b8
00000180: 0000 0000 0000 0000 0000 0000 0000 0000
00000190: 0000 0000 0000 0000 0000 0000 0000 0000
000001a0: 0000 0000 0000 0000 0000 0000 0000 0000
000001b0: 0000 0000 0000 0000 0000 0000 0000 0000
000001c0: 0000 0000 0000 0000 0000 0000 0000 0000
000001d0: 0000 0000 0000 0000 0000 0000 0000 0000
000001e0: 0000 0000 0000 0000 0000 0000 0000 0000
000001f0: 0000 0000 0000 0000 0000 0000 0000 0000
00000200: 40e2 c4b8 94f9 88b8 af8e 2fb9 fc8b f1b8
00000210: efd1 a1b8 2ee0 0ab9 b498 01b9 a2d0 c3b8
00000220: f50c c6b8 d643 25b9 8e3b d9b8 bb54 a2b8
00000230: ea35 09b8 e360 eeb8 85c4 98b8 4967 cfb8
00000240: ad66 b3b8 e748 beb8 60fa e0b8 9ecd 32b9
00000250: 90df 01b9 ff13 eeb8 f5b5 20b9 c838 c7b8
00000260: 9c2f f0b8 1f24 cab8 f9e7 21b9 6af4 2fb9
00000270: 6259 15b9 0812 e6b8 7084 c1b8 b40f 06b9
00000280: 0000 0000 0000 0000 0000 0000 0000 0000
00000290: 0000 0000 0000 0000 0000 0000 0000 0000
000002a0: 0000 0000 0000 0000 0000 0000 0000 0000
000002b0: 0000 0000 0000 0000 0000 0000 0000 0000
000002c0: 0000 0000 0000 0000 0000 0000 0000 0000
000002d0: 0000 0000 0000 0000 0000 0000 0000 0000
000002e0: 0000 0000 0000 0000 0000 0000 0000 0000
000002f0: 0000 0000 0000 0000 0000 0000 0000 0000
00000300: f4ea 23b9 b949 abb8 6594 49b9 1fa4 e0b8
00000310: a62c 08b9 3252 13b9 7909 d4b8 c856 cdb8
00000320: afd0 43b8 b725 c3b8 e75a 94b8 aca0 07b9
00000330: 478b efb8 30c7 01b9 517f 5cb8 0b79 3238
00000340: 55ff bab6 1cbc 69b7 ddd0 4eb8 af33 c9b8
00000350: 108c 8db8 5eb8 d3b8 08b4 01b9 9192 61b9
00000360: e2ea 03b9 be22 1fb8 3b4a 39b8 2110 89b8
00000370: 16eb 97b8 9c02 d1b8 0c1b 99b8 dc78 22b9
00000380: 0000 0000 0000 0000 0000 0000 0000 0000
00000390: 0000 0000 0000 0000 0000 0000 0000 0000
000003a0: 0000 0000 0000 0000 0000 0000 0000 0000
000003b0: 0000 0000 0000 0000 0000 0000 0000 0000
000003c0: 0000 0000 0000 0000 0000 0000 0000 0000
000003d0: 0000 0000 0000 0000 0000 0000 0000 0000
000003e0: 0000 0000 0000 0000 0000 0000 0000 0000
000003f0: 0000 0000 0000 0000 0000 0000 0000 0000

exp_avg_sq f4 [1, 4096]
0.00068238896 0.00073255785 0.0012340741 0.0010746799 0.0008028933 0.0017664657 0.0009841296 0.0014266926
0.0009918638 0.000945532 0.0009899094 0.00064644264 0.0011671211 0.0003898159 0.00022479234 0.0012279939
0.0011810709 0.00069763913 0.0006648759 0.0013090777 0.00090491003 0.00072202046 0.0013288232 0.0007467444
0.0008887043 0.0016937988 0.0009933882 0.0012784095 0.0010464772 0.00065421837 0.0006005209 0.0012656703
0.0 0.0 0.0 0.0 0.0 0.0 0.0 0.0
0.0 0.0 0.0 0.0 0.0 0.0 0.0 0.0
0.0 0.0 0.0 0.0 0.0 0.0 0.0 0.0
0.0 0.0 0.0 0.0 0.0 0.0 0.0 0.0
0.0010164225 0.0012649758 0.0011465492 0.001253678 0.0005488541 0.00076270354 0.00078274717 0.0016358345
0.00085546967 0.00095683086 0.0010679069 0.0016201595 0.0012392972 0.0006076778 0.0008072517 0.0005900487
0.00089636585 0.0006789529 0.00064357836 0.0009870243 0.0012716788 0.0011485963 0.0007353644 0.001507266
0.0012268705 0.00060620747 0.00092213723 0.0015052777 0.000647758 0.00095932366 0.0007996208 0.00068882026
0.0 0.0 0.0 0.0 0.0 0.0 0.0 0.0
0.0 0.0 0.0 0.0 0.0 0.0 0.0 0.0
0.0 0.0 0.0 0.0 0.0 0.0 0.0 0.0
0.0 0.0 0.0 0.0 0.0 0.0 0.0 0.0
0.0011913958 0.00067751517 0.0019558743 0.0008981895 0.00048740057 0.001089396 0.00093952194 0.0006797442
0.00055405725 0.0010840923 0.0006794264 0.00069249945 0.00078680663 0.0009100247 0.0009520212 0.0011742789
0.00078462076 0.00080941594 0.0010865123 0.001631404 0.0005282337 0.00080363406 0.0016032152 0.0011160466
0.0008529082 0.0009829914 0.001369388 0.0013806204 0.0010098724 0.0008274612 0.0014667035 0.0012887934
0.0 0.0 0.0 0.0 0.0 0.0 0.0 0.0
0.0 0.0 0.0 0.0 0.0 0.0 0.0 0.0
0.0 0.0 0.0 0.0 0.0 0.0 0.0 0.0
0.0 0.0 0.0 0.0 0.0 0.0 0.0 0.0
0.0011395783 0.00057983707 0.0015578254 0.000465486 0.0011156523 0.000744096 0.00098207 0.0015388157
0.00069638656 0.0007542907 0.001597505 0.0016020758 0.00048767877 0.0011271433 0.0044896244 0.010437941
0.0044897865 0.0059112776 0.0058070836 0.0032581708 0.000979134 0.0018464983 0.004926989 0.0057943948
0.0018337824 0.0011762581 0.0006840449 0.00073932623 0.0012900645 0.0007315643 0.0005533475 0.0014139256
0.0 0.0 0.0 0.0 0.0 0.0 0.0 0.0
0.0 0.0 0.0 0.0 0.0 0.0 0.0 0.0
0.0 0.0 0.0 0.0 0.0 0.0 0.0 0.0
0.0 0.0 0.0 0.0 0.0 0.0 0.0 0.0
00000000: 59e2 323a 2009 403a a8c0 a13a 46dc 8c3a
00000010: 4279 523a c188 e73a e9fd 803a dcff ba3a
00000020: 6d01 823a 94dd 773a d9bf 813a 0876 293a
00000030: 16fa 983a 3460 cc39 3cb6 6b39 a3f4 a03a
00000040: 2ace 9a3a c5e1 363a 114b 2e3a 5c95 ab3a
00000050: 7c37 6d3a f945 3d3a e82b ae3a 2bc1 433a
00000060: f0f7 683a 7502 de3a 9434 823a 4e90 a73a
00000070: f329 893a da7f 2b3a 476c 1d3a d9e4 a53a
00000080: 0000 0000 0000 0000 0000 0000 0000 0000
00000090: 0000 0000 0000 0000 0000 0000 0000 0000
000000a0: 0000 0000 0000 0000 0000 0000 0000 0000
000000b0: 0000 0000 0000 0000 0000 0000 0000 0000
000000c0: 0000 0000 0000 0000 0000 0000 0000 0000
000000d0: 0000 0000 0000 0000 0000 0000 0000 0000
000000e0: 0000 0000 0000 0000 0000 0000 0000 0000
000000f0: 0000 0000 0000 0000 0000 0000 0000 0000
00000100: 7b39 853a 8bcd a53a cf47 963a 7452 a43a
00000110: fae0 0f3a 2bf0 473a 4631 4d3a 7f69 d63a
00000120: 9941 603a d5d3 7a3a 02f9 8b3a 885b d43a
00000130: ea6f a23a 914c 1f3a bf9d 533a 7fad 1a3a
00000140: 18fa 6a3a c2fb 313a d0b5 283a 0a5f 813a
00000150: 76ae a63a 7f8c 963a 78c5 403a 748f c53a
00000160: f1ce a03a e5e9 1e3a 95bb 713a bd4c c53a
00000170: 4ece 293a 1f7b 7b3a a59d 513a f291 343a
00000180: 0000 0000 0000 0000 0000 0000 0000 0000
00000190: 0000 0000 0000 0000 0000 0000 0000 0000
000001a0: 0000 0000 0000 0000 0000 0000 0000 0000
000001b0: 0000 0000 0000 0000 0000 0000 0000 0000
000001c0: 0000 0000 0000 0000 0000 0000 0000 0000
000001d0: 0000 0000 0000 0000 0000 0000 0000 0000
000001e0: 0000 0000 0000 0000 0000 0000 0000 0000
000001f0: 0000 0000 0000 0000 0000 0000 0000 0000
00000200: 9c28 9c3a 469b 313a 202e 003b 7a74 6b3a
00000210: cc89 ff39 10ca 8e3a 404a 763a dc30 323a
00000220: 273e 113a 1a18 8e3a 891b 323a da88 353a
00000230: b341 4e3a b98e 6e3a 1091 793a 43ea 993a
00000240: 02af 4d3a fc2e 543a 4e69 8e3a d6d4 d53a
00000250: 2a79 0a3a f8aa 523a fa22 d23a 4f48 923a
00000260: b395 5f3a b8d7 803a 097d b33a eff5 b43a
00000270: b25d 843a fbe9 583a 673e c03a bbec a83a
00000280: 0000 0000 0000 0000 0000 0000 0000 0000
00000290: 0000 0000 0000 0000 0000 0000 0000 0000
000002a0: 0000 0000 0000 0000 0000 0000 0000 0000
000002b0: 0000 0000 0000 0000 0000 0000 0000 0000
000002c0: 0000 0000 0000 0000 0000 0000 0000 0000
000002d0: 0000 0000 0000 0000 0000 0000 0000 0000
000002e0: 0000 0000 0000 0000 0000 0000 0000 0000
000002f0: 0000 0000 0000 0000 0000 0000 0000 0000
00000300: e75d 953a 3500 183a f22f cc3a 790c f439
00000310: 143b 923a 700f 433a cdb8 803a 16b2 c93a
00000320: b68d 363a 98bb 453a 5f63 d13a befc d13a
00000330: 23af ff39 a7bc 933a b31d 933b e603 2b3c
00000340: 0f1f 933b 64b3 c13b 5949 be3b 0987 553b
00000350: 4956 803a 3406 f23a 9472 a13b e8de bd3b
00000360: 875b f03a ac2c 9a3a 7a51 333a 58cf 413a
00000370: 6217 a93a 73c6 3f3a 860e 113a 7853 b93a
00000380: 0000 0000 0000 0000 0000 0000 0000 0000
00000390: 0000 0000 0000 0000 0000 0000 0000 0000
000003a0: 0000 0000 0000 0000 0000 0000 0000 0000
000003b0: 0000 0000 0000 0000 0000 0000 0000 0000
000003c0: 0000 0000 0000 0000 0000 0000 0000 0000
000003d0: 0000 0000 0000 0000 0000 0000 0000 0000
000003e0: 0000 0000 0000 0000 0000 0000 0000 0000
000003f0: 0000 0000 0000 0000 0000 0000 0000 0000
